model_saved/my/1.pt (torch, 673053 bytes, 21 tensors)

stft.window f4 [128]
0.0 0.00060227513 0.0024076402 0.005411744 0.009607345 0.014984369 0.021529824 0.029227972
0.038060248 0.048005342 0.059039384 0.0711357 0.0842652 0.09839624 0.11349478 0.12952444
0.14644662 0.16422054 0.18280336 0.20215034 0.2222149 0.24294865 0.26430166 0.28622246
0.3086583 0.33155507 0.35485768 0.37850994 0.40245488 0.42663476 0.45099142 0.47546616
0.5 0.52453387 0.5490086 0.5733653 0.59754515 0.6214901 0.6451424 0.668445
0.69134176 0.71377754 0.73569846 0.75705135 0.7777852 0.79784966 0.8171966 0.83577955
0.8535534 0.87047565 0.88650525 0.9016038 0.9157348 0.9288643 0.94096065 0.95199466
0.9619398 0.970772 0.9784702 0.98501563 0.9903927 0.99458826 0.99759233 0.99939775
1.0 0.99939775 0.99759233 0.99458826 0.9903926 0.98501563 0.97847015 0.970772
0.96193975 0.95199466 0.94096065 0.92886424 0.91573477 0.90160376 0.8865052 0.87047553
0.8535533 0.8357794 0.81719667 0.7978496 0.777785 0.7570514 0.73569834 0.7137775
0.6913416 0.66844493 0.64514226 0.62148994 0.5975452 0.5733652 0.5490085 0.5245337
0.5 0.47546607 0.45099127 0.4266348 0.4024548 0.3785098 0.3548575 0.33155507
0.30865818 0.2862223 0.26430166 0.24294859 0.22221479 0.20215037 0.18280333 0.16422045
0.1464465 0.12952444 0.113494724 0.09839615 0.0842652 0.07113567 0.059039325 0.048005283
0.038060218 0.029227942 0.021529794 0.014984369 0.009607345 0.0054117143 0.0024076104 0.00060227513
00000000: 0000 0000 00e2 1d3a 80c9 1d3b 0055 b13b
00000010: 2068 1d3c 0081 753c 505f b03c 806f ef3c
00000020: 10e5 1b3d 40a1 443d 48d3 713d 98af 913d
00000030: 3c93 ac3d f883 c93d f46f e83d 0ea2 043e
00000040: 1af6 153e 6e29 283e ce30 3b3e 8000 4f3e
00000050: 4e8c 633e 88c7 783e 8c52 873e c08b 923e
00000060: 7608 9e3e 96c1 a93e e8af b53e 0ecc c13e
00000070: 910e ce3e df6f da3e 59e8 e63e 4d70 f33e
00000080: 0000 003f da47 063f d48b 0c3f 11c8 123f
00000090: b8f8 183f fa19 1f3f 0d28 253f 361f 2b3f
000000a0: c6fb 303f 20ba 363f bc56 3c3f 1ece 413f
000000b0: ee1c 473f e03f 4c3f cc33 513f a6f5 553f
000000c0: 7a82 5a3f 7ed7 5e3f 02f2 623f 82cf 663f
000000d0: 996d 6a3f 0dca 6d3f cce2 703f ecb5 733f
000000e0: b041 763f 8484 783f 067d 7a3f fc29 7c3f
000000f0: 608a 7d3f 569d 7e3f 3662 7f3f 88d8 7f3f
00000100: 0000 803f 88d8 7f3f 3662 7f3f 569d 7e3f
00000110: 5f8a 7d3f fc29 7c3f 057d 7a3f 8484 783f
00000120: af41 763f ecb5 733f cce2 703f 0cca 6d3f
00000130: 986d 6a3f 81cf 663f 01f2 623f 7cd7 5e3f
00000140: 7882 5a3f a4f5 553f cd33 513f df3f 4c3f
00000150: eb1c 473f 1fce 413f ba56 3c3f 1fba 363f
00000160: c3fb 303f 351f 2b3f 0b28 253f f719 1f3f
00000170: b9f8 183f 10c8 123f d28b 0c3f d747 063f
00000180: 0000 003f 4a70 f33e 54e8 e63e e06f da3e
00000190: 8e0e ce3e 09cc c13e e2af b53e 96c1 a93e
000001a0: 7208 9e3e bb8b 923e 8c52 873e 84c7 783e
000001b0: 468c 633e 8200 4f3e cc30 3b3e 6829 283e
000001c0: 12f6 153e 0ea2 043e ec6f e83d ec83 c93d
000001d0: 3c93 ac3d 94af 913d 38d3 713d 30a1 443d
000001e0: 08e5 1b3d 706f ef3c 405f b03c 0081 753c
000001f0: 2068 1d3c c054 b13b 00c9 1d3b 00e2 1d3a

conv1.0.weight f4 [24, 3, 12, 12]
0.02912026 0.027160296 0.029171117 0.006039765 -0.038214806 -0.023846872 -0.010344424 -0.03488403
0.029112617 -0.01672096 0.019980587 -0.03267529 0.040040344 -0.002918671 0.039543107 0.011710843
0.040223014 0.038926236 0.005422552 -0.020306272 -0.018636914 0.036986653 0.0009107682 0.027108975
-0.016835775 0.022962876 0.0028965357 -0.0236415 -0.026414813 0.014746658 0.029030746 -0.029076755
0.03141506 0.0073561165 0.019003443 -0.014985511 -0.045840334 -0.04381687 0.041773867 0.0061736368
0.0015854163 -0.0105998535 0.02559353 0.005367604 0.0024574876 -0.00017431613 0.03944117 0.017062416
0.010237585 0.022630088 -0.05188159 -0.007307105 0.021207143 -0.024838882 -0.049118176 -0.011634095
-0.04807785 -0.0019528574 0.009951016 0.017360425 0.040951114 -0.032373287 0.014715113 -0.018655935
-0.00807717 0.02390061 0.004307586 -0.02168667 0.05097044 0.04373582 0.03290598 0.051129393
0.05592124 0.028461361 0.055713877 -6.722643e-05 -0.024083426 0.05137931 -0.02560467 -0.011658254
0.05036903 0.027751142 0.0036279229 0.030947438 0.043819968 -0.023628151 0.03259197 0.0023154316
-0.010197846 -4.525768e-05 -0.040400676 0.007010855 0.032036103 0.0389223 0.02749459 0.04043383
-0.033311043 0.02744935 -0.04584943 -0.017950684 -0.020695094 -0.029106118 -0.013279878 -0.0019657915
0.027611334 -0.038732164 -0.016916016 -0.0043416107 0.035844237 -0.006618193 -0.043721795 -0.00837167
0.029434044 -0.0074530086 0.03167748 -0.04036177 0.02094232 0.022398343 0.02143666 -0.032851145
-0.022412047 -0.011338057 -0.018389335 -0.00714889 0.025057174 -0.03165933 0.044790562 -0.010374062
-0.02815376 0.0026553941 0.013601916 -0.008894491 -0.04150244 -0.01952197 -0.046222866 -0.027928293
0.011694199 0.02064744 -0.0419713 0.03803265 -0.038248286 -0.03218095 0.038087185 0.0059797866
-0.035406824 0.041194014 0.042206626 -0.0022187328 -0.041303128 0.0070113493 -0.017453428 -0.01918098
0.026315784 0.0074322773 0.012220166 -0.03736828 -0.015742349 0.0014508723 -0.012480529 -0.01042756
-0.004659809 0.02259308 -0.034630932 0.043926686 0.04398425 0.02295707 0.02957185 -0.036626708
0.024691008 0.005218018 -0.041342698 -0.012245301 -0.03495526 0.043106806 -0.01014553 -0.021660805
0.017605107 0.017453445 -0.024973027 0.036348708 -0.04574195 -0.0075035817 -0.03399188 -0.05085488
-0.038522985 -0.031539164 -0.05019007 -0.033500735 -0.032026045 0.025706757 -0.042857524 -0.016557751
0.037862267 -0.005322973 0.009327079 0.032744974 0.03633376 -0.011701238 -0.012008656 0.038218644
0.01547081 -0.011713314 0.043774467 0.03857266 -0.019649014 -0.009016379 -0.0008603538 -0.014935794
0.00792837 -0.026256815 0.0052781748 -0.028023833 0.009953888 -0.028913459 -0.011016633 -0.041677445
-0.030904796 -0.036245305 -0.029344218 0.032857746 0.03479883 -0.002619891 -0.019907543 0.03425107
0.03340179 -0.03270713 0.043688625 0.009703774 0.011263551 0.04351749 0.041624192 0.042490702
-0.033802297 -0.027384179 0.015835041 0.012685133 0.013692127 -0.034739178 -0.037492823 0.02279233
0.046782743 -0.002666087 0.0395709 0.03300361 -0.04067728 0.02906654 0.028782321 -0.008585234
-0.004860531 0.011944768 0.046239052 0.020462865 -0.037103683 -0.042194992 -0.012514512 0.017819777
00000000: 9d8d ee3c 457f de3c 44f8 ee3c 39e9 c53b
00000010: 2187 1cbd 845a c3bc a97b 29bc 8fe2 0ebd
00000020: 957d ee3c 65fa 88bc 54ae a33c 86d6 05bd
00000030: 5801 243d 2c47 3fbb f4f7 213d d6de 3f3c
00000040: e3c0 243d 1e71 1f3d aaaf b13b 5759 a6bc
00000050: 71ac 98bc 517f 173d 9fc0 6e3a a413 de3c
00000060: 2eeb 89bc a41c bc3c ced3 3d3b d2ab c1bc
00000070: e163 d8bc f79b 713c e3d1 ed3c 6032 eebc
00000080: 14ad 003d 940b f13b 1cad 9b3c ca85 75bc
00000090: 13c3 3bbd 5179 33bd 131b 2b3d 384c ca3b
000000a0: becd cf3a 02ab 2dbc 86a9 d13c bae2 af3b
000000b0: cd0d 213b a1c8 36b9 108d 213d 7bc6 8b3c
000000c0: 8bbb 273c bc62 b93c ca81 54bd 7170 efbb
000000d0: 9aba ad3c e97a cbbc 2430 49bd ee9c 3ebc
000000e0: 48ed 44bd 05f7 ffba 9609 233c 7337 8e3c
000000f0: 5bbc 273d da99 04bd a817 713c 55d4 98bc
00000100: 1b56 04bc 36cb c33c a626 8d3b 3ea8 b1bc
00000110: 61c6 503d 5524 333d 6cc8 063d 0e6d 513d
00000120: ac0d 653d cd27 e93c 3c34 643d eafb 8cb8
00000130: 9b4a c5bc 1d73 523d e3c0 d1bc 4302 3fbc
00000140: c24f 4e3d 5d56 e33c 72c2 6d3b 7b85 fd3c
00000150: 917c 333d d38f c1bc 287f 053d 7fbe 173b
00000160: de14 27bc 10d3 3db8 2e7b 25bd 50bb e53b
00000170: 4a38 033d fd6c 1f3d 563c e13c f29d 253d
00000180: 2971 08bd 76dd e03c 9dcc 3bbd 500d 93bc
00000190: c288 a9bc f46f eebc d893 59bc 82d4 00bb
000001a0: 2a31 e23c 9ea5 1ebd 7593 8abc 1244 8ebb
000001b0: 68d1 123d 6ddd d8bb a015 33bd 5429 09bc
000001c0: aa1f f13c 5e38 f4bb 3fc0 013d 6252 25bd
000001d0: 3a8f ab3c bb7c b73c ef9b af3c ec8e 06bd
000001e0: 7899 b7bc 42c3 39bc 3ba5 96bc 3c41 eabb
000001f0: b444 cd3c 37ad 01bd 4f76 373d f8f7 29bc
00000200: b7a2 e6bc 1f06 2e3b 92da 5e3c 33ba 11bc
00000210: 76fe 29bd 8aec 9fbc 3054 3dbd e0c9 e4bc
00000220: 0799 3f3c d224 a93c 19ea 2bbd 20c8 1b3d
00000230: 3caa 1cbd 2cd0 03bd 4f01 1c3d 16f2 c33b
00000240: bf06 11bd 0ebb 283d dbe0 2c3d 2968 11bb
00000250: 782d 29bd 76bf e53b 7efa 8ebc 6e21 9dbc
00000260: 3394 d73c 768a f33b 1737 483c 7b0f 19bd
00000270: 19f6 80bc 322b be3a 227b 4cbc 5bd8 2abc
00000280: 50b1 98bb 1f15 b93c 2ad9 0dbd 78ec 333d
00000290: d428 343d 7710 bc3c aa40 f23c e305 16bd
000002a0: cc44 ca3c e8fb aa3b f656 29bd 84a0 48bc
000002b0: 3f2d 0fbd c390 303d 7039 26bc 0072 b1bc
000002c0: 9638 903c 87fa 8e3c 3c94 ccbc 62e2 143d
000002d0: e95b 3bbd 9be0 f5bb 123b 0bbd 354d 50bd
000002e0: 47ca 1dbd 362f 01bd 1a94 4dbd 1138 09bd
000002f0: be2d 03bd fa96 d23c 5f8b 2fbd 1fa4 87bc
00000300: 7715 1b3d 556c aebb 9bd0 183c 981f 063d
00000310: b5d2 143d 8db6 3fbc f4bf 44bc 278b 1c3d
00000320: 4879 7d3c 33e9 3fbc db4c 333d 5efe 1d3d
00000330: f8f6 a0bc 6fb9 13bc 5e89 61ba 43b5 74bc
00000340: fee5 013c 8818 d7bc 8af4 ac3b 3d92 e5bc
00000350: a215 233c ebdb ecbc 1c7f 34bc f8b5 2abd
00000360: 0e2c fdbc f575 14bd 4963 f0bc d895 063d
00000370: 3889 0e3d 7ab2 2bbb 2515 a3bc da4a 0c3d
00000380: 51d0 083d e9f7 05bd d8f2 323d 94fc 1e3c
00000390: c28a 383c 653f 323d 217e 2a3d bb0a 2e3d
000003a0: 4774 0abd c954 e0bc 7db8 813c 4ed5 4f3c
000003b0: f154 603c ab4a 0ebd 1392 19bd fbb6 ba3c
000003c0: 439f 3f3d 84b9 2ebb 1915 223d cb2e 073d
000003d0: 389d 26bd f41c ee3c e7c8 eb3c 15a9 0cbc
000003e0: 1745 9fbb fdb3 433c 2965 3d3d bda1 a73c
000003f0: 08fa 17bd a8d4 2cbd ab09 4dbc c8fa 913c

conv1.0.bias f4 [24]
-0.0012729617 -0.01985644 -0.037481416 0.04684338 0.019715944 0.043745197 -0.019937156 0.0015024818
0.013709451 0.016247403 -0.009421829 -0.01826813 0.026491674 -0.022810085 -0.014233289 -0.027520223
-0.024410563 0.04191208 -0.031185322 0.023232799 0.04445912 -0.009210667 0.0049271304 -0.04678748
00000000: 82d9 a6ba f9a9 a2bc 1d86 19bd d8de 3f3d
00000010: 5583 a13c 2a2e 333d 3f53 a3bc ecee c43a
00000020: 9b9d 603c 4619 853c 045e 1abc 0ca7 95bc
00000030: 1105 d93c 37dc babc be32 69bc 1772 e1bc
00000040: a9f8 c7bc 00ac 2b3d 5c78 ffbc b652 be3c
00000050: c41a 363d 56e8 16bc c473 a13b 3ba4 3fbd

conv1.1.weight f4 [24]
1.0103188 1.0032524 1.0050768 1.0044177 0.97568876 0.97625196 1.006775 0.99273336
0.98825794 0.9833791 1.00195 0.99725837 1.0008186 0.9970172 1.0129172 0.97869813
0.9934444 1.0053073 1.0040027 0.9934458 1.0218841 1.0035945 0.9808414 0.98021376
00000000: 2052 813f 936a 803f 5ba6 803f c290 803f
00000010: bdc6 793f a6eb 793f 01de 803f c623 7e3f
00000020: 79fe 7c3f bcbe 7b3f e63f 803f 534c 7f3f
00000030: d31a 803f 853c 7f3f 45a7 813f f68b 7a3f
00000040: 5f52 7e3f e9ad 803f 2983 803f 7752 7e3f
00000050: 19cd 823f c975 803f 6c18 7b3f 4aef 7a3f

conv1.1.bias f4 [24]
-0.007909211 -0.009741417 -0.009486027 -0.00540395 -0.029525518 -0.018646134 0.0013181964 -0.020774445
-0.015635317 -0.034213673 -0.0061312444 -0.02329114 -0.018494023 -0.0120507255 -0.032193176 -0.033039108
0.0025536718 -0.0047417157 -0.020896569 -0.0110911075 0.007509212 -0.008612273 -0.023170456 -0.049032163
00000000: a395 01bc 779a 1fbc 486b 1bbc 9e13 b1bb
00000010: 80df f1bc c7bf 98bc 55c7 ac3a 2b2f aabc
00000020: a315 80bc a323 0cbd 9be8 c8bb 10cd bebc
00000030: c780 97bc 6870 45bc fedc 03bd 0454 07bd
00000040: 815b 273b 6560 9bbb 482f abbc 7ab7 35bc
00000050: d60f f63b 7e1a 0dbc f8cf bdbc f3d5 48bd

conv1.1.running_mean f4 [24]
0.091543905 -0.5789743 -0.2683454 -0.012652589 0.5859436 -3.0237937 0.37770295 -0.14689279
-3.3473043 -2.3748264 -0.58114666 -0.15114151 0.052756473 -0.70539767 0.36243755 -1.2454969
1.5803547 0.8743562 0.23862956 -0.19122627 0.7717219 -0.031140566 -1.4436504 -3.057228
00000000: 5f7b bb3d a937 14bf 9164 89be ce4c 4fbc
00000010: 6600 163f d685 41c0 4862 c13e 106b 16be
00000020: 3c3a 56c0 28fd 17c0 07c6 14bf d7c4 1abe
00000030: 2c17 583d f194 34bf 6a91 b93e 716c 9fbf
00000040: 1049 ca3f cfd5 5f3f 4f5b 743e d2d0 43be
00000050: 918f 453f 801a ffbc 89c9 b8bf a0a9 43c0

conv1.1.running_var f4 [24]
25.688885 64.26228 44.47927 31.162107 168.79169 186.19516 24.030981 60.13249
156.37871 130.51945 38.80289 44.02629 73.81432 26.689243 77.273056 74.68256
136.00224 53.575 42.93238 65.42732 36.457554 46.239655 149.88353 178.41254
00000000: d682 cd41 4a86 8042 c6ea 3142 ff4b f941
00000010: acca 2843 f631 3a43 733f c041 ab87 7042
00000020: f360 1c43 fb84 0243 2936 1b42 ec1a 3042
00000030: efa0 9342 9283 d541 ce8b 9a42 795d 9542
00000040: 9300 0843 cd4c 5642 c2ba 2b42 cada 8242
00000050: 89d4 1142 68f5 3842 2fe2 1543 9c69 3243

conv2.0.weight f4 [48, 24, 8, 8]
0.011527663 -0.006619392 0.021059165 0.033159137 0.022597859 0.010952486 0.014836649 0.015827531
-0.005361358 -0.00670135 -0.01089866 0.016549397 -0.0027578003 0.00036900555 -0.012970624 0.011410788
0.025852066 0.027101448 0.0014715891 0.014753237 0.015877172 -0.012128647 0.023093192 0.032274567
0.024304299 0.007459494 0.0027364525 -0.0108498065 0.006776195 0.0138586825 -0.014641014 0.00040831236
-0.01292417 0.0090062 0.016109101 0.011632572 0.02125439 0.024419203 -0.0016820338 0.020148002
0.026454559 0.015262051 0.018156253 0.030961283 0.007267929 -0.0057129106 -0.014433839 -0.0090049235
-0.0023014324 0.009678518 0.027670002 0.018203493 0.006261074 0.01042801 -0.00046495357 -0.006263059
-0.008332618 0.003283896 -0.014147161 -0.0031012772 0.015579152 0.02968696 0.021373356 0.026663419
0.002021319 0.0024668274 0.0007159652 -0.012965247 0.0079826955 0.013643804 0.017423045 0.016324995
-0.028862614 0.013709 0.0030755242 0.013060397 -0.00040835145 0.0153223295 0.018146927 0.018630115
-0.016530726 0.00632567 -0.0032672228 0.0034413817 0.022684002 -0.015452444 0.0019579346 -0.008078439
-0.006271343 -0.017319135 0.019939391 -0.022537107 0.019077312 -0.0015395433 0.0028118005 0.026181191
0.020254996 -0.018856432 -0.006571968 -0.022701569 -0.010200102 0.025234085 0.013120549 -0.012273825
-0.007367695 -0.022723876 0.019039864 0.027390722 -0.010099872 -0.0025825212 0.011120079 -0.017640226
0.00035094988 -0.01460218 0.023608463 -0.030557247 -0.010717287 -0.016635193 0.014338686 -0.0038312771
-0.0020710947 0.0067634955 0.023661803 -0.012580439 -0.006202941 0.014762783 0.012676418 0.020179195
-0.011450511 0.026764037 -0.018504465 -0.0060062343 0.025376797 -0.004055498 0.003987353 0.00199656
0.013382721 0.003570969 0.0053771962 0.016463885 0.023271834 0.011078577 -0.00075443526 0.018158816
0.019882632 0.0065563098 0.012845104 -0.015889851 0.0030395838 -0.009579037 0.00034663026 0.02312183
0.013761603 0.031829327 -0.0042918203 0.029203702 0.023056744 0.011649427 0.012176802 0.010288371
-0.010066124 -0.0034199054 -0.018311134 0.004239414 -0.021180913 -0.017812764 0.0030763263 0.0013373757
-0.010698335 -0.0120170405 0.01469885 -0.022684205 0.008048948 0.0046678623 0.011172468 -0.0020120228
-0.018916463 0.015792768 -0.016874356 -0.031858575 -0.01980719 0.028199127 0.0013993685 0.016650992
0.010419755 0.007653605 -0.007272301 -0.0054943613 0.006963959 0.014351235 -0.017407859 0.0038098027
0.018921308 -0.013802376 -0.00033264048 0.015428837 0.011774791 0.015407122 0.006208685 0.024669725
-0.016623523 -0.019551259 -0.0239085 -0.010355056 -0.0151214935 -0.014350251 -0.021607444 -0.0160221
0.007902065 -0.0131868 0.025432425 -0.010427056 0.024541391 0.006310401 0.008257227 -0.0012603117
0.027498139 -0.006920518 0.023873592 0.024062745 -0.013932883 0.008230429 0.0067100143 -0.01481448
0.023104707 0.025591439 -0.00566472 0.014883182 -0.01112179 -0.0029445686 0.021576347 -0.0071133655
-0.005558235 -0.015157464 -0.0075555323 0.0073341136 0.02637986 -0.008697446 0.010870154 -0.010932103
0.011549393 0.013852929 0.022452952 -0.022584153 -0.025557311 -0.0031061906 -0.020905683 0.01422107
0.004381841 -0.0183723 0.024080224 0.020814119 0.004874455 0.019489447 -0.006703959 0.027880862
00000000: 86de 3c3c 7ce7 d8bb 4584 ac3c e0d1 073d
00000010: 251f b93c 0e72 333c 6b15 733c bda8 813c
00000020: 55ae afbb 0097 dbbb 4b90 32bc 9a92 873c
00000030: 36bc 34bb 1677 c139 bd82 54bc 50f4 3a3c
00000040: b6c7 d33c db03 de3c 56e2 c03a 90b7 713c
00000050: d810 823c 3cb7 46bc ef2d bd3c 5632 043d
00000060: cf19 c73c c56e f43b 0e56 333b 63c3 31bc
00000070: d80a de3b 870f 633c dde0 6fbc c212 d639
00000080: e6bf 53bc be8e 133c 3cf7 833c 8b96 3e3c
00000090: b01d ae3c c80a c83c b077 dcba 6c0d a53c
000000a0: 3bb7 d83c ae0d 7a3c 6cbc 943c 84a2 fd3c
000000b0: cf27 ee3b 5e33 bbbb e97b 6cbc 6389 13bc
000000c0: a1d3 16bb a692 1e3c 33ac e23c 7e1f 953c
000000d0: b229 cd3b 3eda 2a3c 03c5 f3b9 593a cdbb
000000e0: 8885 08bc a236 573b 7ec9 67bc cc3e 4bbb
000000f0: b33f 7f3c 1132 f33c 2d17 af3c 3e6d da3c
00000100: 1b78 043b 7faa 213b 9caf 3b3a 306c 54bc
00000110: dac9 023c 438a 5f3c c6ba 8e3c ffbb 853c
00000120: 4a71 ecbc b79b 603c bc8e 493b 46fb 553c
00000130: 0118 d6b9 820a 7b3c dda8 943c 2f9e 983c
00000140: 726b 87bc 9147 cf3b e71e 56bb ce88 613b
00000150: cdd3 b93c 3f2c 7dbc b150 003b 6e5b 04bc
00000160: d77f cdbb dce0 8dbc ef57 a33c bd9f b8bc
00000170: 0648 9c3c 80ca c9ba 2f46 383b f079 d63c
00000180: ceed a53c ce78 9abc aa59 d7bb a4f8 b9bc
00000190: 541e 27bc b6b7 ce3c 92f7 563c 2718 49bc
000001a0: b56c f1bb 6c27 babc 7df9 9b3c 8262 e03c
000001b0: ef79 25bc 843f 29bb fe30 363c 3c82 90bc
000001c0: b2ff b739 fb3d 6fbc 8966 c13c 3153 fabc
000001d0: 8f97 2fbc 8746 88bc cfec 6a3c 2a16 7bbb
000001e0: 34bb 07bb 50a0 dd3b 66d6 c13c 301e 4ebc
000001f0: 0a42 cbbb 9adf 713c c0b0 4f3c d74e a53c
00000200: ed9a 3bbc 4140 db3c ad96 97bc f2cf c4bb
00000210: 00e3 cf3c fce3 84bb 57a8 823b b8d8 023b
00000220: 3343 5b3c eb06 6a3b 3133 b03b 45df 863c
00000230: 93a4 be3c eb82 353c 4bc5 45ba ccc1 943c
00000240: e7e0 a23c 50d6 d63b 4574 523c 6f2b 82bc
00000250: c133 473b 65f1 1cbc edbb b539 fe69 bd3c
00000260: 5978 613c 785f 023d 66a2 8cbb 9a3c ef3c
00000270: 7fe1 bc3c 3ddd 3e3c 3681 473c 8e90 283c
00000280: 62ec 24bc 7e20 60bb 3b01 96bc c8ea 8a3b
00000290: 9883 adbc 13ec 91bc 319c 493b e24a af3a
000002a0: 1248 2fbc 1fe3 44bc 72d3 703c 3ad4 b9bc
000002b0: bcdf 033c def4 983b ba0c 373c 24dc 03bb
000002c0: b3f6 9abc d65f 813c 173c 8abc 237e 02bd
000002d0: b042 a2bc db01 e73c 046b b73a a967 883c
000002e0: 9fb7 2a3c 18cb fa3b 7b4c eebb 0b0a b4bb
000002f0: ec31 e43b 7121 6b3c ed9a 8ebc e2ad 793b
00000300: dc00 9b3c 5c23 62bc 4066 aeb9 3cc9 7c3c
00000310: 0eeb 403c 276e 7c3c 3a72 cb3b 2a18 ca3c
00000320: 0e2e 88bc f629 a0bc c2db c3bc 41a8 29bc
00000330: 24c0 77bc 511d 6bbc 1802 b1bc c740 83bc
00000340: aa77 013c 730d 58bc a957 d03c 3ed6 2abc
00000350: 070b c93c 7bc7 ce3b 5249 073c 0b31 a5ba
00000360: c743 e13c 83c5 e2bb 8d92 c33c 3c1f c53c
00000370: bf46 64bc ecd8 063c aedf db3b 6fb8 72bc
00000380: 1546 bd3c 23a5 d13c 1e9f b9bb 97d8 733c
00000390: 2b38 36bc aaf9 40bb e1c0 b03c 3c17 e9bb
000003a0: db21 b6bb 0357 78bc 6694 f7bb 0153 f03b
000003b0: 931a d83c bc7f 0ebc bb18 323c 901c 33bc
000003c0: aa39 3d3c 65f7 623c 41ef b73c 6702 b9bc
000003d0: 915d d1bc 3b91 4bbb 6542 abbc 7eff 683c
000003e0: 8c95 8f3b 8181 96bc e443 c53c 5f82 aa3c
000003f0: e4b9 9f3b 55a8 9f3c e2ac dbbb 6866 e43c

conv2.0.bias f4 [48]
0.014372315 -0.00549715 -0.017849358 -0.006760424 -0.019932399 -0.02064377 0.017730445 0.01046002
-0.0118026305 -0.01017477 0.0018895507 0.019470798 -0.008283546 0.0038148107 0.022515325 -0.02428436
0.017069526 -0.0077519347 -0.013646341 0.013152638 -0.014854132 -0.008845404 -0.0030433882 0.012267445
-0.021601263 -0.024941545 0.0026661237 0.00095720746 0.010449945 0.0028808948 -0.0172125 -0.005254931
0.010028269 -0.01605282 -0.01525918 0.016815897 0.0033842267 0.0066718915 0.019782867 0.00043427642
0.02202676 -0.021898283 0.004078227 0.011533398 0.01895124 0.012728771 -0.0056941095 0.013305502
00000000: dc79 6b3c 7021 b4bb d138 92bc 8c86 ddbb
00000010: 4549 a3bc 201d a9bc 703f 913c 8160 2b3c
00000020: d25f 41bc 14b4 26bc cdaa f73a 3981 9f3c
00000030: b6b7 07bc e701 7a3b 0f72 b83c ffef c6bc
00000040: 64d5 8b3c f103 febb e794 5fbc 2a7e 573c
00000050: bf5e 73bc 50ec 10bc 9573 47bb 65fd 483c
00000060: 22f5 b0bc 3652 ccbc 22ba 2e3b 1bed 7a3a
00000070: 3f36 2b3c 65cd 3c3b 3b01 8dbc 8e31 acbb
00000080: 9c4d 243c 3481 83bc a401 7abc 7ec1 893c
00000090: e7c9 5d3b e29f da3b ae0f a23c 98af e339
000000a0: 7771 b43c 0764 b3bc a6a2 853b 94f6 3c3c
000000b0: a23f 9b3c 568c 503c a795 babb 52ff 593c

conv2.1.weight f4 [48]
1.0041592 0.99017566 1.0064591 1.006719 1.0012192 0.9988556 0.99633086 0.9630665
1.0197887 1.0046488 1.0049753 0.9817149 1.015715 0.9910163 0.94817394 0.99811125
0.9698392 0.97072136 1.0044976 1.0078795 1.0132626 0.99750465 1.0072508 1.0071763
0.96861595 1.0087483 0.9881138 0.991581 0.9914757 1.0043381 1.0050416 0.99383724
1.0031651 1.0105021 0.98057634 0.98306483 1.0211241 0.98718214 0.9759479 0.98464257
1.0028341 1.0205523 0.98761445 1.0046805 1.0117131 0.97621423 0.9966043 1.0032716
00000000: 4a88 803f 277c 7d3f a7d3 803f 2bdc 803f
00000010: f327 803f 00b5 7f3f 8a0f 7f3f 878b 763f
00000020: 7088 823f 5598 803f 08a3 803f ab51 7b3f
00000030: f302 823f 3fb3 7d3f 87bb 723f 3884 7f3f
00000040: 6247 783f 3281 783f 6193 803f 3202 813f
00000050: 97b2 813f 775c 7f3f 98ed 803f 27eb 803f
00000060: 37f7 773f aa1e 813f 07f5 7c3f 41d8 7d3f
00000070: 5ad1 7d3f 278e 803f 34a5 803f 1e6c 7e3f
00000080: b767 803f 2258 813f 0d07 7b3f 23aa 7b3f
00000090: 32b4 823f f8b7 7c3f b9d7 793f 8911 7c3f
000000a0: de5c 803f 75a1 823f 4dd4 7c3f 5f99 803f
000000b0: d17f 813f 2de9 793f 7621 7f3f 346b 803f

conv2.1.bias f4 [48]
0.00372992 -0.024452997 0.008602685 -0.011426463 -0.0061189556 -0.008857931 -0.0069899643 -0.033508256
-0.0141859995 -0.004881145 0.0031281072 -0.020884568 -0.003332677 -0.016225269 -0.04385463 -0.006554289
-0.040001787 -0.032973193 -0.009382573 -0.0014940441 -0.0014494823 -0.014067249 -0.013066789 -0.010787372
-0.045555826 -0.008852525 -0.015417005 -0.033813756 -0.00974151 -0.007926347 -0.015796043 -0.0056453734
0.0073711225 0.007317265 -0.03164793 -0.011484902 0.005003594 0.00048201747 -0.021398691 -0.026741536
-0.0053778263 -0.008025065 -0.026837673 0.009036554 -0.01029874 -0.03290594 -0.009400029 0.0005218356
00000000: ac71 743b a751 c8bc 47f2 0c3c 0f36 3bbc
00000010: 8581 c8bb db20 11bc 120c e5bb f43f 09bd
00000020: 656c 68bc 03f2 9fbb ee00 4d3b 1d16 abbc
00000030: 0b69 5abb dbea 84bc eaa0 33bd 5cc5 d6bb
00000040: ead8 23bd e60e 07bd 5db9 19bc cdd3 c3ba
00000050: 8efc bdba 527a 66bc 1616 56bc 84bd 30bc
00000060: bf98 3abd 2e0a 11bc 9b97 7cbc 4b80 0abd
00000070: db9a 1fbc 82dd 01bc b466 81bc d3fc b8bb
00000080: 7589 f13b abc5 ef3b 43a1 01bd 2c2b 3cbc
00000090: 30f5 a33b 4ab7 fc39 4f4c afbc 1111 dbbc
000000a0: 7a38 b0bb 907b 03bc aeda dbbc 0e0e 143c
000000b0: 0cbc 28bc 61c8 06bd 9402 1abc cbcb 083a

conv2.1.running_mean f4 [48]
0.64336646 -0.41286337 0.42976812 0.11042909 0.81998223 0.15973265 0.61591333 -1.0363158
0.0725524 0.058316607 0.39735186 -1.1279095 0.38365382 -0.6542391 -1.4587461 0.019085757
-0.53941405 -0.89728487 0.9650475 0.42403048 0.213655 0.558082 0.39234385 0.40973508
-1.2791688 0.1262949 -0.52014834 -0.09749668 0.31392956 0.4416068 0.2283729 -0.38782206
0.69258416 0.38791254 -0.82031 -0.012638778 0.38604173 -0.37285116 -1.184676 0.17879844
0.554922 0.14876309 -0.3245579 0.8740133 0.643637 -1.0709014 0.7478375 0.24250898
00000000: aab3 243f d462 d3be 910a dc3e a628 e23d
00000010: 5bea 513f f590 233e 7fac 1d3f ffa5 84bf
00000020: 5a96 943d 65dd 6e3d b471 cb3e 575f 90bf
00000030: 466e c43e 377c 27bf 31b8 babf bc59 9c3c
00000040: 0a17 0abf 76b4 65bf 5a0d 773f 861a d93e
00000050: 60c8 5a3e 76de 0e3f 4be1 c83e ccc8 d13e
00000060: cebb a3bf 7353 013e 7128 05bf 57ac c7bd
00000070: 60bb a03e 491a e23e 96da 693e 9d90 c6be
00000080: 324d 313f 799c c63e d6ff 51bf e112 4fbc
00000090: 43a7 c53e 59e6 bebe 77a3 97bf f016 373e
000000a0: 5e0f 0e3f 5a55 183e 742c a6be 56bf 5f3f
000000b0: 65c5 243f 4c13 89bf 4772 3f3f 4654 783e

conv2.1.running_var f4 [48]
4.1180043 5.337436 2.78027 4.5712047 8.850058 3.6529164 4.147451 7.1163855
2.3156264 2.7444873 3.8943055 11.173007 4.236697 5.1397924 14.320943 4.1274223
4.8132133 5.686478 6.926559 4.880597 4.680208 4.6856794 5.8709135 6.4336925
9.061991 5.6017942 4.0843754 4.112143 5.2514787 4.241941 4.637223 4.7872486
4.1112475 2.970791 7.1637807 4.106895 5.827345 3.2080753 8.702485 5.481581
4.985977 2.9505079 6.208319 4.791641 4.243194 7.3465257 5.7837462 5.455325
00000000: b1c6 8340 47cc aa40 f2ef 3140 4f47 9240
00000010: d699 0d41 62c9 6940 ebb7 8440 6eb9 e340
00000020: 3933 1440 aea5 2f40 4d3c 7940 a3c4 3241
00000030: 0693 8740 2e79 a440 9522 6541 d813 8440
00000040: d805 9a40 a1f7 b540 5fa6 dd40 da2d 9c40
00000050: 44c4 9540 16f1 9540 86de bb40 cfe0 cd40
00000060: eafd 1041 e641 b340 34b3 8240 ad96 8340
00000070: 1d0c a840 fbbd 8740 2164 9440 2431 9940
00000080: 578f 8340 7121 3e40 b13d e540 af6b 8340
00000090: 9c79 ba40 1b51 4d40 613d 0b41 1d69 af40
000000a0: 208d 9f40 1fd5 3c40 8daa c640 2055 9940
000000b0: 3fc8 8740 bd16 eb40 7314 b940 0692 ae40

conv3.0.weight f4 [96, 48, 4, 4]
0.014960175 -0.014717841 -0.030000793 0.022404127 -0.028250799 -0.012834081 0.02865357 0.0064810296
-0.011166282 0.021652617 0.033765256 0.04382763 0.040274963 -0.011635377 -0.007919034 -0.012155297
-2.6526799e-05 -0.021282831 0.034537397 0.024554962 0.029335083 0.018587843 0.0039046877 0.023110483
0.017742231 0.023888301 -0.0031225593 -0.01861261 0.019118553 0.027825993 0.018679019 0.020354167
0.024826054 0.030714426 0.024316452 -0.02328781 0.017317737 0.015760433 -0.0007242336 0.021311501
0.042909943 0.03826425 -0.019507196 -0.011717473 0.014290714 -0.041023176 0.02231639 0.007608894
-0.0018520419 0.00470499 0.03552112 -0.019790323 -0.011239344 -0.008538913 0.03439252 -0.023135781
-0.015633546 0.004354328 -0.010281652 0.021853575 0.038700797 0.030129608 0.0074256402 -0.030781124
-0.02532238 -0.010588017 -0.003151302 -0.013439915 0.019779723 0.038645826 0.035989027 0.010651418
-0.01036886 -0.014345124 0.0118656345 0.038861014 0.028307868 -0.03290343 0.021054758 -0.030293595
-0.012496019 -0.0036685723 0.0017488919 0.032502837 0.037067782 0.031157143 0.022809409 0.032270893
0.03655515 -0.00066439924 -0.011815806 0.0175845 -0.019985367 0.017941887 0.028113913 0.010956004
0.0040899776 -0.010756016 -0.0010163877 -0.0067203003 0.0067766192 0.01876513 0.0014670915 0.012300127
-0.02252117 -0.007213821 -0.008332567 0.034724843 0.0061917743 -0.0010911112 -0.008026732 -0.016363291
-0.01178932 0.031685796 0.008992439 0.013869301 0.013356736 -0.0062748296 -0.020435851 -0.021045659
-0.012056928 -0.043137237 -0.02518566 -0.0148951635 0.007258658 -0.014138278 -0.0007556589 -0.016334053
0.04822919 0.016675018 0.02600168 0.023315828 0.0063746274 0.046200983 -0.02013688 -0.00639016
-0.0038160023 0.01636552 0.031556617 0.01173651 0.004505992 -0.029277906 0.021155778 -0.04375703
0.02624458 -0.007942276 0.01526126 -0.028064627 -0.018685406 0.02092381 -0.02631521 0.02388462
-0.011002286 0.025190528 0.022827215 0.0021296886 0.013056641 0.005876993 -0.00067495403 -0.0052552763
-0.015383213 0.039998975 0.0038330625 -0.0026910668 -0.023815097 -0.0077430992 0.03346395 -0.019698014
0.027245253 -0.0029841668 0.03235521 -0.015879663 0.02064316 0.012532548 0.0019131434 0.0048363814
0.0030294214 -0.034302104 -0.023892568 0.018029144 0.024497725 -0.021242164 0.0034202705 -0.022357155
0.002210286 -0.0105714025 -0.034997176 0.00047130944 -0.010998164 0.034534927 -0.017835619 -0.021246186
0.016652655 -0.0070645553 -0.010088607 0.00615727 -0.005064421 0.010957242 0.02865891 0.013376303
0.039647035 0.026208803 -0.016879639 0.031704042 -0.009497878 0.02261151 0.018396515 0.033125613
-0.0010945697 -0.012084814 0.032028016 -0.019068092 0.0016320653 -0.027291909 -0.009949388 -0.036120232
-0.0015111658 -0.005674644 -0.02858149 -0.017373504 -0.017445536 -6.638314e-05 -0.03200682 -0.0046599745
-0.028998608 -0.014976006 -0.01466913 -0.036192145 -0.03966494 -0.02754284 0.009213384 -0.01725102
-0.033168856 0.00311869 0.023724016 -0.0129369935 -0.011798549 -0.02912796 -0.02554469 -0.019044517
-0.04767994 0.0006712094 -0.020721454 -0.018008608 0.030379662 0.017556857 0.039737824 0.032769024
0.026881803 0.034375947 0.0023613607 -0.0093454085 0.004566505 0.00615714 -0.0062346067 -0.0034453624
00000000: 861b 753c 1923 71bc 39c4 f5bc dc88 b73c
00000010: 386e e7bc 0a46 52bc e4ba ea3c d15e d43b
00000020: c8f2 36bc d460 b13c 704d 0a3d 9a84 333d
00000030: 5cf7 243d 4fa2 3ebc d6be 01bc 0327 47bc
00000040: de85 deb7 5559 aebc 1677 0d3d 7d27 c93c
00000050: 2150 f03c 8845 983c cae5 7f3b 3252 bd3c
00000060: 2858 913c 66b1 c33c daa3 4cbb 7979 98bc
00000070: 839e 9c3c 56f3 e33c be04 993c c8bd a63c
00000080: 0260 cb3c d29c fb3c 4c33 c73c 14c6 bebc
00000090: eddd 8d3c 061c 813c 7fda 3dba 7595 ae3c
000000a0: 56c2 2f3d f9ba 1c3d 8ecd 9fbc a5fa 3fbc
000000b0: 9923 6a3c eb07 28bd ddd0 b63c 0754 f93b
000000c0: 37c0 f2ba 512c 9a3b 987e 113d 511f a2bc
000000d0: 3a25 38bc cce6 0bbc 2cdf 0c3d 4087 bdbc
000000e0: ec11 80bc c0ae 8e3b 6074 28bc 4506 b33c
000000f0: ba84 1e3d 5ed2 f63c c952 f33b b228 fcbc
00000100: e170 cfbc 5d79 2dbc 1386 4ebb 1733 5cbc
00000110: 1609 a23c 164b 1e3d 3b69 133d 4983 2e3c
00000120: 27e2 29bc d007 6bbc 1468 423c ba2c 1f3d
00000130: e7e5 e73c bfc5 06bd 077b ac3c 462a f8bc
00000140: 1abc 4cbc 6e6c 70bb 133b e53a b221 053d
00000150: 63d4 173d 443d ff3c ccda ba3c 7c2e 043d
00000160: daba 153d 142b 2eba 1597 41bc 5f0d 903c
00000170: 5ab8 a3bc ddfa 923c 264f e63c d080 333c
00000180: 3805 863b 003a 30bc 5038 85ba f735 dcbb
00000190: 670e de3b 54b9 993c 6c4b c03a 7986 493c
000001a0: 517e b8bc eb61 ecbb 5285 08bc a33b 0e3d
000001b0: 5ee4 ca3b 9e03 8fba 8e82 03bc 4f0c 86bc
000001c0: fe27 41bc f7c8 013d 0655 133c 113c 633c
000001d0: 36d6 5a3c 169d cdbb 1669 a7bc f267 acbc
000001e0: 6c8a 45bc acb0 30bd 2852 cebc d80a 74bc
000001f0: 09da ed3b 3ca4 67bc 6917 46ba fece 85bc
00000200: f98b 453d 0c9a 883c 7a01 d53c d600 bf3c
00000210: 40e2 d03b 3e3d 3d3d 19f6 a4bc 8c64 d1bb
00000220: e515 7abb fc10 863c 8341 013d 7e4a 403c
00000230: 00a7 933b 38d8 efbc e24e ad3c 923a 33bd
00000240: e0fe d63c 5220 02bc 5d0a 7a3c cae7 e5bc
00000250: 2312 99bc 6968 ab3c ff92 d7bc aea9 c33c
00000260: ef42 34bc 5e5c ce3c 2400 bb3c 3f92 0b3b
00000270: 86eb 553c ca93 c03b 66ef 30ba 7434 acbb
00000280: df09 7cbc f7d5 233d 1e34 7b3b 9c5c 30bb
00000290: e117 c3bc d3b9 fdbb 7f11 093d bb5d a1bc
000002a0: 7031 df3c 0392 43bb e686 043d 1116 82bc
000002b0: d81b a93c 5155 4d3c 71c2 fa3a 827a 9e3b
000002c0: 4289 463b 5d80 0cbd 59ba c3bc dbb1 933c
000002d0: 74af c83c 0c04 aebc 9e26 603b 5a26 b7bc
000002e0: 72da 103b ad33 2dbc 3359 0fbd 151a f739
000002f0: a531 34bc 7f74 0d3d 011c 92bc 7b0c aebc
00000300: 266b 883c c97d e7bb af4a 25bc edc2 c93b
00000310: 71f3 a5bb 0186 333c 17c6 ea3c 4828 5b3c
00000320: ee64 223d d8b3 d63c 2b47 8abc 19dc 013d
00000330: fd9c 1bbc c63b b93c 4ab4 963c b9ae 073d
00000340: aa77 8fba 62ff 45bc cf2f 033d b034 9cbc
00000350: 06eb d53a 4893 dfbc c202 23bc cff2 13bd
00000360: 4f12 c6ba 5df2 b9bb bb23 eabc e152 8ebc
00000370: f1e9 8ebc 2d37 8bb8 9519 03bd b3b2 98bb
00000380: 7d8e edbc ec5d 75bc ca56 70bc 373e 14bd
00000390: b477 22bd 86a1 e1bc bcf3 163c 0352 8dbc
000003a0: 11dc 07bd f062 4c3b de58 c23c aff5 53bc
000003b0: b44e 41bc c29d eebc 1943 d1bc 3f03 9cbc
000003c0: 0a4c 43bd 1af4 2f3a 0ac0 a9bc ca86 93bc
000003d0: c5de f83c 66d3 8f3c 21c4 223d d038 063d
000003e0: 3a37 dc3c cbcd 0c3d 0fc1 1a3b 7c1d 19bc
000003f0: 9fa2 953b d5c1 c93b ac4b ccbb 97cb 61bb

conv3.0.bias f4 [96]
-0.0325105 0.03337935 -0.0072146873 -0.024383396 0.025986623 0.013226044 0.020705858 0.020303827
-0.026157895 -0.02888882 0.026555201 0.019463463 0.023728458 0.035989784 -0.0025312924 0.010409579
-0.029621454 -0.031054152 0.0025929136 0.017767306 -0.015943287 -0.0060726907 -0.017700799 0.009035909
-0.01214244 0.0061518494 0.017167713 -0.022486437 0.006586299 0.006964139 0.0018383176 -0.027010327
-0.009087519 -0.021414213 0.01208391 0.0128662605 0.031269 0.009631607 0.0046093594 0.031483933
0.0047384007 0.02099691 0.031188026 0.00949503 0.019624287 -0.014273817 0.036571536 0.016140107
-0.030222876 -0.010011203 -0.02620642 -0.023296563 0.033074323 0.0141208675 -0.02201821 0.024959935
0.02282549 -0.032928873 0.027044794 0.02157172 -0.0009027415 0.015795123 -0.032504674 0.031404093
0.004880925 0.032773275 0.010392274 0.0084316665 -0.02900312 0.026883893 0.010377754 -0.0007702871
0.009958484 0.016285924 0.0058723018 -0.0040791286 -0.020476049 -0.012182526 0.00525701 -0.028673133
0.029706893 -0.0049514566 -0.0101012215 -0.006428214 0.03053921 0.028297415 0.03293828 -0.0068179425
0.01093584 -0.021406151 -0.013313442 0.018834136 -0.03202333 -0.012556871 -0.004591221 0.028791958
00000000: bb29 05bd c9b8 083d 2f69 ecbb b0bf c7bc
00000010: e6e1 d43c 0db2 583c 559f a93c 3654 a63c
00000020: 1549 d6bc 3fa8 ecbc 4b8a d93c d771 9f3c
00000030: 2f62 c23c 066a 133d 0ae4 25bb f08c 2a3c
00000040: b1a8 f2bc 4765 febc dfed 293b be8c 913c
00000050: 7f9b 82bc 6cfd c6bb 4401 91bc 590b 143c
00000060: 16f1 46bc 7495 c93b 4ea3 8c3c 7a35 b8bc
00000070: e1d1 d73b 6f33 e43b b4f3 f03a c344 ddbc
00000080: d1e3 14bc dc6c afbc 98fb 453c 02cd 523c
00000090: ec13 003d e3cd 1d3c 1c0a 973b 4cf5 003d
000000a0: 9644 9b3b b601 ac3c 087e ff3c 0b91 1b3c
000000b0: 1dc3 a03c badc 69bc 09cc 153d 4238 843c
000000c0: f795 f7bc 0706 24bc d9ae d6bc 6fd8 bebc
000000d0: f178 073d 365b 673c 885f b4bc c778 cc3c
000000e0: 86fc ba3c 6de0 06bd 0b8d dd3c 2db7 b03c
000000f0: f5a5 6cba c664 813c 9f23 05bd 94a1 003d
00000100: 2bf0 9f3b 453d 063d 5b44 2a3c f924 0a3c
00000110: f397 edbc 9c3b dc3c 7507 2a3c 18ed 49ba
00000120: e928 233c 0f6a 853c 706c c03b 36aa 85bb
00000130: 63bd a7bc 3899 47bc ff42 ac3b ebe3 eabc
00000140: df5b f33c d43f a2bb 987f 25bc c4a3 d2bb
00000150: 5e2d fa3c fbcf e73c 4aea 063d 0c69 dfbb
00000160: 3d2c 333c f45b afbc 9f20 5abc 0c4a 9a3c
00000170: e52a 03bd 56bb 4dbc f471 96bb 1ddd eb3c

conv3.1.weight f4 [96]
0.95488197 0.9722835 0.9581111 0.97642875 0.97959083 0.95212716 0.95307 0.93783665
0.93755525 0.97194487 0.9664136 0.9623512 0.93645275 0.966499 0.9626205 0.9675246
0.9419547 0.966556 0.963924 0.94030523 0.9662736 0.9512689 0.9702413 0.96248907
0.95611763 0.98206216 0.9744792 0.9658978 0.93329513 0.94762146 0.9450637 0.94077456
0.9767753 0.958972 0.9747858 0.9528788 0.9668775 0.9706702 0.9690456 0.9737725
0.9575116 0.9795946 0.96018976 0.9329394 0.96752834 0.9705257 0.9567952 0.95990694
0.96188295 0.976534 0.9408035 0.96150714 0.987316 0.9322115 0.95739913 0.9685638
0.96064436 0.96627885 0.97789377 0.9554772 0.96068645 0.98049194 0.97760355 0.94297993
0.9611843 0.95353013 0.94333196 0.9799139 0.9616768 0.9733456 0.9662866 0.9234475
0.9754835 0.935905 0.9613228 0.9840112 0.9570777 0.96643656 0.9713415 0.94532347
0.96451735 0.96487254 0.9526554 0.9520577 0.9577562 0.9492349 0.9421491 0.94996685
0.9501368 0.96953857 0.9651412 0.9196444 0.9740348 0.9527112 0.9650108 0.96370244
00000000: 2573 743f 92e7 783f c546 753f 3cf7 793f
00000010: 77c6 7a3f 9bbe 733f 65fc 733f 1016 703f
00000020: 9f03 703f 61d1 783f e266 773f a65c 763f
00000030: 5ebb 6f3f 7a6c 773f 4c6e 763f b1af 773f
00000040: f123 713f 3770 773f b9c3 763f d8b7 703f
00000050: b55d 773f 5c86 733f bc61 783f af65 763f
00000060: 20c4 743f 6d68 7b3f 7877 793f 1445 773f
00000070: 6eec 6e3f 5297 723f b2ef 713f 9ad6 703f
00000080: f20d 7a3f 307f 753f 908b 793f ddef 733f
00000090: 4985 773f d87d 783f 5f13 783f 2849 793f
000000a0: 7b1f 753f b6c6 7a3f ffce 753f 1ed5 6e3f
000000b0: f0af 773f 5f74 783f 88f0 743f 76bc 753f
000000c0: f63d 763f 22fe 793f 80d8 703f 5525 763f
000000d0: bec0 7c3f 6aa5 6e3f 1c18 753f ccf3 773f
000000e0: caec 753f 0d5e 773f 3f57 7a3f 279a 743f
000000f0: 8cef 753f 8501 7b3f 3a44 7a3f 2267 713f
00000100: 2d10 763f 8d1a 743f 347e 713f a3db 7a3f
00000110: 7330 763f 2d2d 793f 8f5e 773f 0e67 6c3f
00000120: 49b9 793f 7897 6f3f 4019 763f 28e8 7b3f
00000130: 0b03 753f 6368 773f d6a9 783f b800 723f
00000140: 9cea 763f e301 773f 39e1 733f 0eba 733f
00000150: 832f 753f 0f01 733f af30 713f 0731 733f
00000160: 2a3c 733f ae33 783f 7e13 773f d16d 6b3f
00000170: 585a 793f e2e4 733f f30a 773f 34b5 763f

conv3.1.bias f4 [96]
-0.040013712 -0.031964466 -0.049722906 -0.033208575 -0.01666693 -0.051540665 -0.04984149 -0.04111628
-0.06258818 -0.016467258 -0.02682679 -0.044394806 -0.049579985 -0.04441939 -0.054477297 -0.040793378
-0.06251732 -0.025608346 -0.039252292 -0.055381224 -0.033907596 -0.03041569 -0.031223975 -0.028799769
-0.04019957 -0.01563623 -0.05311028 -0.04041183 -0.058963187 -0.039481986 -0.054379582 -0.06818308
-0.04917271 -0.03791399 -0.017794153 -0.066110164 -0.037228327 -0.031806044 -0.056428034 -0.028920105
-0.036541574 -0.019059485 -0.077278845 -0.072680555 -0.032492697 -0.024644112 -0.05810343 -0.029486235
-0.047987245 -0.025941366 -0.058954813 -0.04378016 -0.009434557 -0.072175324 -0.035062023 -0.05594208
-0.04669216 -0.039832138 -0.018256499 -0.059964478 -0.06145448 -0.0112309335 -0.035947975 -0.058534417
-0.029857276 -0.040998798 -0.042879824 -0.018119326 -0.050101392 -0.029491035 -0.02493927 -0.051254235
-0.017216891 -0.06871149 -0.059039894 -0.032529317 -0.0320459 -0.05496611 -0.05368257 -0.05767228
-0.041502677 -0.03487366 -0.051133834 -0.048184544 -0.041719764 -0.04311289 -0.050724573 -0.07948972
-0.030288935 -0.039122384 -0.033936307 -0.09589839 -0.014833799 -0.043972455 -0.06832851 -0.037738394
00000000: 6be5 23bd 2ced 02bd 3faa 4bbd b705 08bd
00000010: 1689 88bc 4e1c 53bd 9726 4cbd 8b69 28bd
00000020: 3b2e 80bd 58e6 86bc dbc3 dbbc 54d7 35bd
00000030: 6214 4bbd 1bf1 35bd 9623 5fbd f516 27bd
00000040: 1509 80bd 98c8 d1bc 03c7 20bd 6cd7 62bd
00000050: b1e2 0abd 532a f9bc 6cc9 ffbc 7eed ebbc
00000060: 4ea8 24bd 8d17 80bc 2a8a 59bd e086 25bd
00000070: 6283 71bd ddb7 21bd 20bd 5ebd 92a3 8bbd
00000080: 5369 49bd b34b 1bbd 0bc5 91bc c464 87bd
00000090: bb7c 18bd 0e47 02bd 1521 67bd dbe9 ecbc
000000a0: 9eac 15bd a322 9cbc 5f44 9ebd 8bd9 94bd
000000b0: 1017 05bd 73e2 c9bc ddfd 6dbd 1e8d f1bc
000000c0: 468e 44bd fd82 d4bc 9a7a 71bd d352 33bd
000000d0: 6693 1abc a8d0 93bd 329d 0fbd 8623 65bd
000000e0: 4740 3fbd 0627 23bd a78e 95bc 509d 75bd
000000f0: b1b7 7bbd f301 38bc 2f3e 13bd c9c1 6fbd
00000100: 3f97 f4bc 5bee 27bd c1a2 2fbd fb6e 94bc
00000110: 1e37 4dbd 2f97 f1bc 714d ccbc f6ef 51bd
00000120: 700a 8dbc 9cb8 8cbd d1d3 71bd 763d 05bd
00000130: 9042 03bd 2524 61bd 41e2 5bbd c539 6cbd
00000140: b6fe 29bd afd7 0ebd b671 51bd 285d 45bd
00000150: 58e2 2abd 2497 30bd 92c4 4fbd 82cb a2bd
00000160: 8020 f8bc cb3e 20bd cc00 0bbd 6066 c4bd
00000170: 7609 73bc 761c 34bd d1ef 8bbd 9393 1abd

conv3.1.running_mean f4 [96]
0.5516978 -0.69160056 -0.7251108 -0.6431039 -0.6547567 -0.7550331 0.6641403 0.47017556
-1.1786073 0.55486465 -1.9964681 -0.6261363 -0.9667573 -0.6494848 -0.6700079 -1.1138647
-1.2599365 0.6957338 -0.67079616 0.78875035 -1.1884705 -0.9125108 -1.0659305 1.1424202
0.8411404 -1.2582922 -0.24132161 -0.740464 0.5896357 0.657478 -1.0193588 -0.83305633
-0.77697664 -0.86617297 0.24503975 -1.0254229 -0.6584176 -1.0797881 -0.5806609 0.61641145
-0.09574941 -1.1549422 -0.29748404 -1.2062937 -0.2770915 0.89302146 -0.57817847 0.78697103
-0.86256623 -1.3458756 -0.5940542 -1.1634182 -0.8385068 -0.6524486 0.6443455 -0.03377327
0.835352 -0.721487 0.4194351 -0.3161037 -0.6755756 -0.41977412 -0.69181496 -1.105081
0.75819975 0.38315 0.7903312 -0.5097274 -0.21284822 -0.64267915 0.5686991 -0.0053507723
1.1348333 -1.1118063 -0.1450732 -0.34240818 0.8916515 -0.17467566 -0.68575203 -1.1067916
-0.62047035 -0.8767113 -1.1322408 -0.70291024 -1.1679517 -0.6492128 0.7317558 -1.3557631
-0.629019 -1.3575449 -0.9446996 -1.2166955 1.115876 -0.82027346 -0.45617253 -1.8169149
00000000: 113c 0d3f bc0c 31bf dda0 39bf 75a2 24bf
00000010: 239e 27bf d949 41bf 1905 2a3f daba f03e
00000020: 9bdc 96bf 9c0b 0e3f 448c ffbf 784a 20bf
00000030: 687d 77bf a344 26bf a385 2bbf 1e93 8ebf
00000040: 9945 a1bf 9c1b 323f 4cb9 2bbf 8beb 493f
00000050: cd1f 98bf 4f9a 69bf 6970 88bf d33a 923f
00000060: fa54 573f b80f a1bf 031d 77be 0c8f 3dbf
00000070: 5ef2 163f 7a50 283f 597a 82bf 2e43 55bf
00000080: f1e7 46bf 83bd 5dbf b3eb 7a3e 0f41 83bf
00000090: 0e8e 28bf 7f36 8abf 31a6 14bf 24cd 1d3f
000000a0: 4418 c4bd 25d5 93bf d44f 98be d567 9abf
000000b0: f0de 8dbe 0e9d 643f 8103 14bf ef76 493f
000000c0: 24d1 5cbf a745 acbf f013 18bf e3ea 94bf
000000d0: 62a8 56bf df06 27bf d4f3 243f d755 0abd
000000e0: a1d9 553f 5fb3 38bf 33c0 d63e 58d8 a1be
000000f0: 86f2 2cbf a2ec d6be c91a 31bf 4b73 8dbf
00000100: 6119 423f 3d2c c43e 2553 4a3f 7f7d 02bf
00000110: e2f4 59be 9f86 24bf 4496 113f 8855 afbb
00000120: 3842 913f ab4f 8ebf 128e 14be 2050 afbe
00000130: 4643 643f 2dde 32be 728d 2fbf 59ab 8dbf
00000140: 25d7 1ebf 2770 60bf 44ed 90bf edf1 33bf
00000150: 717f 95bf cf32 26bf 5954 3b3f a589 adbf
00000160: 6407 21bf 08c4 adbf d5d7 71bf aebc 9bbf
00000170: 06d5 8e3f 71fd 51bf 728f e9be ab90 e8bf

conv3.1.running_var f4 [96]
7.4257073 8.758556 5.3691916 8.780898 8.786206 7.6677384 4.8136644 5.713748
20.062428 4.814432 40.7883 3.8680553 5.8974133 8.482044 6.65108 7.020822
12.024003 5.67899 6.180102 7.628993 9.106665 6.72127 11.550801 11.340574
7.5261993 9.7094755 9.833464 8.275914 6.4410524 4.907484 8.233814 3.9164543
4.687873 7.043403 7.2821836 9.599588 7.1161604 9.989032 8.474058 5.5151443
5.9279265 12.414942 6.047486 20.606714 6.7396493 7.9463944 3.98461 5.8511896
4.986427 11.256482 7.3565717 9.9926605 5.612582 5.2512674 5.680188 7.155108
7.9362683 6.9004645 4.380389 11.691704 12.870713 5.322797 5.1952047 18.10632
8.8382845 5.9091372 8.026591 2.4168024 5.063509 4.825097 6.064052 5.31685
9.540639 11.190619 3.6958342 5.439826 8.117925 3.3481236 7.245048 13.717034
6.0357003 8.081705 9.079131 4.1061435 15.252325 7.8720603 4.792455 18.854416
4.5612206 10.4570675 5.945396 17.487354 12.693837 9.7626505 7.6548448 49.295887
00000000: 659f ed40 0c23 0c41 6bd0 ab40 8f7e 0c41
00000010: 4d94 0c41 1d5e f540 8a09 9a40 06d7 b640
00000020: da7f a041 d40f 9a40 3827 2342 388e 7740
00000030: 9cb7 bc40 74b6 0741 a6d5 d440 93aa e040
00000040: 5162 4041 49ba b540 65c3 c540 b620 f440
00000050: e6b4 1141 a514 d740 15d0 3841 fe72 3541
00000060: a0d6 f040 035a 1b41 de55 1d41 256a 0441
00000070: 1a1d ce40 1c0a 9d40 b4bd 0341 30a7 7a40
00000080: 0e03 9640 8f63 e140 a607 e940 ea97 1941
00000090: 96b7 e340 13d3 1f41 be95 0741 107c b040
000000a0: 93b1 bd40 9aa3 4641 0185 c140 8dda a441
000000b0: 35ab d740 dd48 fe40 da03 7f40 f23c bb40
000000c0: cf90 9f40 8d1a 3441 0969 eb40 f0e1 1f41
000000d0: 469a b340 620a a840 1ac4 b540 a5f6 e440
000000e0: e9f5 fd40 9bd0 dc40 262c 8c40 3811 3b41
000000f0: 71ee 4d41 5a54 aa40 1e3f a640 bed9 9041
00000100: 9d69 0d41 a717 bd40 eb6c 0041 e4ac 1a40
00000110: 4408 a240 3267 9a40 b70c c240 a323 aa40
00000120: 75a6 1841 c70c 3341 8c88 6c40 0e13 ae40
00000130: 05e3 0141 a847 5640 6fd7 e740 f978 5b41
00000140: 7524 c140 aa4e 0141 1f44 1141 8765 8340
00000150: 8609 7441 ebe7 fb40 cb5b 9940 d8d5 9641
00000160: 85f5 9140 2650 2741 af40 be40 1ae6 8b41
00000170: f519 4b41 d133 1c41 7df4 f440 fd2e 4542

fc4.weight f4 [2, 3840]
-0.0035260885 -0.008547642 -0.009543237 0.0020136985 -0.0023863171 0.0023460023 0.0071611973 0.009507754
-0.0052342704 -0.006390795 -0.01892655 -0.01977719 -0.0011261263 -0.019459361 0.011060265 -0.019974712
0.006647618 0.009551985 0.0057884287 -0.0027417687 -0.019085607 0.008295256 -0.006089433 -0.008408575
-0.006611326 0.0020817893 0.009808447 0.0027355552 0.012961052 -0.0007526183 -0.01600294 0.0015004782
0.016583715 -0.013191576 0.0045878906 -0.013475935 -0.009554032 0.00060685124 -0.021188343 0.009970373
0.005413693 -0.0010558182 0.01505006 0.004172219 0.020530086 -0.0009039594 0.00919033 -0.0014174387
0.0023217464 -0.0161179 0.0007810477 -0.020966383 -0.0015070438 -8.62292e-05 0.0024767674 0.005483087
-0.015586447 0.008591215 0.004918458 0.0017383622 -0.01093986 0.0009991663 0.0035519414 -0.016763061
0.0006234728 -0.0102748815 -0.02071066 -0.01427713 -0.013397285 -0.011332292 0.004267459 0.009523817
-0.006678852 -0.009072381 -0.014223285 -0.012661901 -0.005965306 0.0093895625 0.0048171356 -0.015829112
-0.0052897884 -0.007909239 0.005173517 0.006490222 0.007149547 0.0046449956 0.001557844 0.01828124
-0.004328165 -0.0067048487 0.009365402 -0.0030467098 -0.010943063 0.00039862574 0.01797255 0.004686269
-0.00034091482 -0.00880007 0.0075763855 0.00050248025 0.009678437 -0.0072797434 -0.0050406256 0.0013401513
0.019154811 -0.0192929 -0.019921841 0.00785862 -0.002700348 -0.0039716675 -0.0070724776 0.0045384304
-0.010119239 0.013559709 -0.010164445 -0.02333575 -0.008874826 -0.0020843747 -0.020987371 -0.02880688
-0.0070307506 -0.010439902 0.016338248 0.002482898 0.0016150604 0.01529847 0.013633862 0.0091357175
-0.014506137 -0.0037137484 -0.00497716 0.01694876 0.008344591 -0.0053299963 -0.0044136317 0.019967915
0.00309244 -0.0020890804 0.02151503 0.013669469 -0.007801709 -0.037308984 0.020116124 -0.046242382
-0.016938308 0.026155625 0.0046374295 0.016453363 0.004421478 -0.0054576807 -0.026333543 0.01151359
0.03130133 -0.016988317 -0.013439697 0.033426534 0.024501948 0.002701104 -0.00085392775 0.008148201
-0.002040207 -0.0032202522 0.0043853214 -0.00999135 -0.01073147 0.0052495413 0.008465562 -0.013635105
-0.0074514765 0.0036003937 -0.010313083 0.0023543274 0.0019165772 0.011179455 0.0035389352 -0.013068693
-0.023506632 -0.015433872 0.0042216294 0.0072147674 0.025949493 -0.015265737 0.021888526 0.016216008
0.016014714 -0.018887125 0.015551071 -0.0024731588 -0.008974925 0.0028450314 -0.009878607 -0.010275984
-0.0015745368 -0.00341557 0.00807721 0.007899066 0.017742584 -0.010471382 0.006494428 0.022733796
0.00784214 0.0010590644 0.012408294 -0.011365172 -0.012489611 -0.0063723577 0.017942488 -0.01282102
-0.015482194 0.005519233 -0.009320826 0.00230135 -0.007061307 -0.009437602 0.0031933228 -0.006933081
0.00052137265 0.013188468 -0.022020444 0.012509158 0.00992269 -0.0120800305 0.014715253 -0.0034470295
-0.0016535746 -0.00071158033 0.003774032 -0.0033553296 -0.0057055615 -0.004288435 0.017692659 -0.011981643
0.0055273906 0.00385894 -0.016843202 -0.020117512 0.004912681 0.0011974168 -0.008514561 0.013656328
-0.0066310265 0.0011670798 0.012473334 -0.016065242 -0.004605326 -0.0053826063 0.012778513 -0.000881268
0.007889276 -0.0035658253 -0.013758275 -0.0044690906 0.0022826742 -0.0055531813 -0.01795464 0.021536186
00000000: f315 67bb 690b 0cbc 3d5b 1cbc 41f8 033b
00000010: c263 1cbb 63bf 193b 7aa8 ea3b 69c6 1b3c
00000020: 3e84 abbb e069 d1bb da0b 9bbc c603 a2bc
00000030: 879a 93ba 3d69 9fbc 1d36 353c 02a2 a3bc
00000040: 43d4 d93b ee7f 1c3c dcac bd3b 3faf 33bb
00000050: 6b59 9cbc d3e8 073c de89 c7bb 1fc4 09bc
00000060: d2a3 d8bb a16e 083b 9cb3 203c 0047 333b
00000070: 985a 543c 5c4b 45ba 9918 83bc b2ab c43a
00000080: 92da 873c 7b21 58bc 0456 963b 2bca 5cbc
00000090: 8488 1cbc 1915 1f3a 2d93 adbc c65a 233c
000000a0: 5965 b13b 6163 8aba 8794 763c 1cb7 883b
000000b0: b62e a83c b0f7 6cba 0a93 163c 5ac9 b9ba
000000c0: 7128 183b b009 84bc 39bf 4c3a b1c1 abbc
000000d0: 0088 c5ba f3d5 b4b8 4351 223b 78ab b33b
000000e0: 4c5e 7fbc 2bc2 0c3c 042b a13b c2d9 e33a
000000f0: 193d 33bc 75f6 823a b0c7 683b b052 89bc
00000100: 8d70 233a fa57 28bc 67a9 a9bc a0ea 69bc
00000110: 4980 5bbc 14ab 39bc 0ad6 8b3b c909 1c3c
00000120: 45da dabb 53a4 14bc c808 69bc dd73 4fbc
00000130: 9d78 c3bb aed6 193c 10d9 9d3b 0eac 81bc
00000140: f655 adbb c195 01bc 9b86 a93b eeab d43b
00000150: bf46 ea3b 0c35 983b 9230 cc3a 8ac2 953c
00000160: 48d3 8dbb 59b4 dbbb 5871 193c 4fab 47bb
00000170: 884a 33bc a4fe d039 2b3b 933c 468f 993b
00000180: d0bc b2b9 2b2e 10bc 5443 f83b e1b8 033a
00000190: 4f92 1e3c ea8a eebb d52b a5bb 04a8 af3a
000001a0: 8dea 9c3c 250c 9ebc 2133 a3bc 71c1 003c
000001b0: 52f8 30bb c324 82bb 3ec0 e7bb 1db7 943b
000001c0: 2acb 25bc 8b29 5e3c c688 26bc 9d2a bfbc
000001d0: b867 11bc 019a 08bb b5ed abbc 68fc ebbc
000001e0: 3662 e6bb 1f0c 2bbc cad7 853c 1eb8 223b
000001f0: 6fb0 d33a 6fa6 7a3c 9060 5f3c faad 153c
00000200: 26ab 6dbc 5c62 73bb 7217 a3bb 20d8 8a3c
00000210: c0b7 083c 40a7 aebb 3aa0 90bb c193 a33c
00000220: 89aa 4a3b f4e8 08bb 4a40 b03c e9f5 5f3c
00000230: 7ba5 ffbb 4ed1 18bd 92ca a43c a768 3dbd
00000240: 35c2 8abc 5244 d63c 94f5 973b 34c9 863c
00000250: 0ce2 903b 58d6 b2bb 71b9 d7bc 7fa3 3c3c
00000260: d335 003d 152b 8bbc 2d32 5cbc 43ea 083d
00000270: 4fb8 c83c 0105 313b 1fda 5fba 0880 053c
00000280: feb4 05bb de0a 53bb beb2 8f3b c2b2 23bc
00000290: 0cd3 2fbc 5804 ac3b 24b3 0a3c c765 5fbc
000002a0: 842b f4bb 95f4 6b3b 35f8 28bc 0f4b 1a3b
000002b0: a935 fb3a 082a 373c 7bed 673b 121e 56bc
000002c0: fb90 c0bc 5ade 7cbc 9855 8a3b db69 ec3b
000002d0: 0894 d43c 241d 7abc 914f b33c 6fd7 843c
000002e0: 4a31 833c 2cb9 9abc ebc9 7e3c b814 22bb
000002f0: 900b 13bc b573 3a3b e1d9 21bc 9a5c 28bc
00000300: b060 ceba c1d7 5fbb 4656 043c 166b 013c
00000310: e558 913c 2990 2bbc 36cf d43b 3a3c ba3c
00000320: 527c 003c 4ed0 8a3a 284c 4b3c fd34 3abc
00000330: 3aa1 4cbc 36cf d0bb 20fc 923c 410f 52bc
00000340: 07a9 7dbc afda b43b 61b6 18bc 3fd2 163b
00000350: 8962 e7bb 2ca0 1abc 1147 513b e62e e3bb
00000360: baac 083a 7214 583c 3864 b4bc 36f3 4c3c
00000370: c792 223c 52eb 45bc 3f18 713c 8fe7 61bb
00000380: c2bc d8ba 5989 3aba c055 773b 17e5 5bbb
00000390: b8f5 babb 0086 8cbb 32f0 903c a74e 44bc
000003a0: 1d1f b53b 45e6 7c3b c1fa 89bc 7bcd a4bc
000003b0: 8efa a03b a4f2 9c3a a880 0bbc cbbe 5f3c
000003c0: 1549 d9bb b3f8 983a f45c 4c3c 419b 83bc
000003d0: 46e8 96bb 9360 b0bb f85c 513c e504 67ba
000003e0: 0642 013c 9fb0 69bb 636a 61bc 7371 92bb
000003f0: eb98 153b 76f7 b5bb 9c15 93bc a86c b03c

fc4.bias f4 [2]
-0.0039323354 0.0045763743
00000000: d2da 80bb 69f5 953b
