model_saved/bci/1.pt (torch, 673053 bytes, 21 tensors)

stft.window f4 [128]
0.0 0.00060227513 0.0024076402 0.005411744 0.009607345 0.014984369 0.021529824 0.029227972
0.038060248 0.048005342 0.059039384 0.0711357 0.0842652 0.09839624 0.11349478 0.12952444
0.14644662 0.16422054 0.18280336 0.20215034 0.2222149 0.24294865 0.26430166 0.28622246
0.3086583 0.33155507 0.35485768 0.37850994 0.40245488 0.42663476 0.45099142 0.47546616
0.5 0.52453387 0.5490086 0.5733653 0.59754515 0.6214901 0.6451424 0.668445
0.69134176 0.71377754 0.73569846 0.75705135 0.7777852 0.79784966 0.8171966 0.83577955
0.8535534 0.87047565 0.88650525 0.9016038 0.9157348 0.9288643 0.94096065 0.95199466
0.9619398 0.970772 0.9784702 0.98501563 0.9903927 0.99458826 0.99759233 0.99939775
1.0 0.99939775 0.99759233 0.99458826 0.9903926 0.98501563 0.97847015 0.970772
0.96193975 0.95199466 0.94096065 0.92886424 0.91573477 0.90160376 0.8865052 0.87047553
0.8535533 0.8357794 0.81719667 0.7978496 0.777785 0.7570514 0.73569834 0.7137775
0.6913416 0.66844493 0.64514226 0.62148994 0.5975452 0.5733652 0.5490085 0.5245337
0.5 0.47546607 0.45099127 0.4266348 0.4024548 0.3785098 0.3548575 0.33155507
0.30865818 0.2862223 0.26430166 0.24294859 0.22221479 0.20215037 0.18280333 0.16422045
0.1464465 0.12952444 0.113494724 0.09839615 0.0842652 0.07113567 0.059039325 0.048005283
0.038060218 0.029227942 0.021529794 0.014984369 0.009607345 0.0054117143 0.0024076104 0.00060227513
00000000: 0000 0000 00e2 1d3a 80c9 1d3b 0055 b13b
00000010: 2068 1d3c 0081 753c 505f b03c 806f ef3c
00000020: 10e5 1b3d 40a1 443d 48d3 713d 98af 913d
00000030: 3c93 ac3d f883 c93d f46f e83d 0ea2 043e
00000040: 1af6 153e 6e29 283e ce30 3b3e 8000 4f3e
00000050: 4e8c 633e 88c7 783e 8c52 873e c08b 923e
00000060: 7608 9e3e 96c1 a93e e8af b53e 0ecc c13e
00000070: 910e ce3e df6f da3e 59e8 e63e 4d70 f33e
00000080: 0000 003f da47 063f d48b 0c3f 11c8 123f
00000090: b8f8 183f fa19 1f3f 0d28 253f 361f 2b3f
000000a0: c6fb 303f 20ba 363f bc56 3c3f 1ece 413f
000000b0: ee1c 473f e03f 4c3f cc33 513f a6f5 553f
000000c0: 7a82 5a3f 7ed7 5e3f 02f2 623f 82cf 663f
000000d0: 996d 6a3f 0dca 6d3f cce2 703f ecb5 733f
000000e0: b041 763f 8484 783f 067d 7a3f fc29 7c3f
000000f0: 608a 7d3f 569d 7e3f 3662 7f3f 88d8 7f3f
00000100: 0000 803f 88d8 7f3f 3662 7f3f 569d 7e3f
00000110: 5f8a 7d3f fc29 7c3f 057d 7a3f 8484 783f
00000120: af41 763f ecb5 733f cce2 703f 0cca 6d3f
00000130: 986d 6a3f 81cf 663f 01f2 623f 7cd7 5e3f
00000140: 7882 5a3f a4f5 553f cd33 513f df3f 4c3f
00000150: eb1c 473f 1fce 413f ba56 3c3f 1fba 363f
00000160: c3fb 303f 351f 2b3f 0b28 253f f719 1f3f
00000170: b9f8 183f 10c8 123f d28b 0c3f d747 063f
00000180: 0000 003f 4a70 f33e 54e8 e63e e06f da3e
00000190: 8e0e ce3e 09cc c13e e2af b53e 96c1 a93e
000001a0: 7208 9e3e bb8b 923e 8c52 873e 84c7 783e
000001b0: 468c 633e 8200 4f3e cc30 3b3e 6829 283e
000001c0: 12f6 153e 0ea2 043e ec6f e83d ec83 c93d
000001d0: 3c93 ac3d 94af 913d 38d3 713d 30a1 443d
000001e0: 08e5 1b3d 706f ef3c 405f b03c 0081 753c
000001f0: 2068 1d3c c054 b13b 00c9 1d3b 00e2 1d3a

conv1.0.weight f4 [24, 3, 12, 12]
0.08026322 0.06984957 -0.021525443 -0.039285425 -0.07373047 -0.08697767 -0.052798152 -0.048365757
-0.06093489 -0.033074897 0.021453328 0.075193055 0.009538058 -0.009722261 -0.019852461 0.009116798
-0.004158146 -0.07677879 -0.00029985583 -0.036422066 -0.069912225 -0.039250966 -0.020940656 0.024565827
-0.027850026 0.0063766544 0.008544615 0.038761497 0.045299653 -0.0027725329 -0.0318492 -0.023206724
-0.037401717 0.017660879 -0.03695995 -0.03143458 -0.08025963 -0.123032026 0.001444908 -0.0084539885
-0.061872162 0.0016859131 -0.018674254 0.02108828 0.049811095 0.0290231 -0.011368393 0.00074904546
0.061984424 0.03588726 -0.023928849 0.024466928 0.0014229525 -0.0067030047 0.008990125 0.0162549
0.03295569 0.028262231 -0.01652561 -0.010605652 0.09703807 0.085378736 -0.002594187 0.02831292
0.04830488 0.03594205 0.064075015 0.025269428 -0.024710583 -0.06474488 -0.0075381924 -0.016794387
0.03140457 0.06059097 -0.005166007 -0.05539236 -0.022286464 -0.0059979907 -0.009308793 0.040374383
0.017333807 -0.0048062745 -0.09596463 -0.11199743 -0.10379148 -0.0979957 -0.024005951 -0.035474855
-0.042712614 -0.024166659 -0.03828469 -0.055239543 -0.1138556 -0.09232506 -0.12543182 -0.100772426
0.014090377 0.05027114 0.029896218 0.0566567 0.030267231 -0.004381295 -0.051765487 -0.044967096
-0.014636429 -0.06145707 0.022448428 0.02190175 0.08040061 0.057814196 0.04415756 0.030322637
0.096028686 0.024601135 0.051656563 0.072936006 0.118203975 0.11744155 0.07173739 0.07052142
0.040089723 0.09521594 0.021178182 0.026738007 0.010461013 -0.014529878 0.061102536 0.060185507
0.03729596 -0.026001548 -0.03851168 0.026975859 0.07979142 0.10103688 0.07825072 0.075462714
0.140564 0.14014186 0.15044563 0.1433741 0.028664099 -0.016191762 -0.0033001492 -0.06952575
0.0044131344 -0.03714101 0.031470504 -0.016273439 -0.007899469 0.012815406 0.047397308 0.051377617
0.079867266 -0.016161637 -0.05496986 -0.10419181 0.030440072 -0.010387107 -0.03405685 -0.014868135
-0.02135881 -0.0126335565 0.04533281 0.009798158 -0.057006605 -0.07493684 -0.07676935 -0.07353296
-0.020735545 0.039178 0.038053412 0.027709933 0.03600529 0.0065150247 -0.06500062 -0.04104834
-0.07107412 -0.06866123 -0.119935 -0.11737842 0.029766582 0.10115838 0.03417309 0.029253738
-0.0020148412 -0.08001259 -0.054816034 0.040188055 0.01497515 0.042796623 -0.022634624 -0.06103336
0.038186114 0.02610997 -0.022278683 -0.0480385 -0.015331452 -0.060531072 0.032778967 -0.024821749
0.017864434 -0.046447635 -0.06093355 -0.0045304433 -0.015397014 -0.06361375 -0.03720301 -0.010250471
-0.04757333 -0.03282133 -0.051939063 -0.00330082 -0.10526536 -0.06484065 -0.076781034 -0.06103901
0.011299884 0.03353359 0.029774547 0.06630717 0.071496665 0.05773618 0.016295185 -0.016826957
-0.01576233 -0.03585392 -0.05746433 -0.036129303 -0.09610984 -0.05872649 0.033399362 0.08655924
0.031477857 0.005030632 -0.030517485 -0.09177696 -0.13850307 -0.06708772 -0.04198425 -0.06815888
-0.04048175 -0.020378523 0.025202926 0.05278744 0.062151097 0.024917101 -0.016127042 -0.025158789
-0.009076418 -0.048637606 -0.032531586 -0.011825573 0.035369344 0.05995108 0.076586396 0.02292741
00000000: 0b61 a43d 4b0d 8f3d 2056 b0bc c1e9 20bd
00000010: 0000 97bd 5921 b2bd e042 58bd 2c1b 46bd
00000020: dd96 79bd 8b79 07bd e4be af3c d1fe 993d
00000030: 8445 1c3c 1e4a 1fbc a1a1 a2bc 9f5e 153c
00000040: 0f41 88bb 333e 9dbd f835 9db9 4e2f 15bd
00000050: 242e 8fbd 9fc5 20bd bd8b abbc 463e c93c
00000060: bd25 e4bc 41f3 d03b b6fe 0b3c 60c4 1e3d
00000070: 218c 393d 62b3 35bb 4f74 02bd 071c bebc
00000080: 8b32 19bd 8cad 903c 5163 17bd 8cc1 00bd
00000090: 295f a4bd 37f8 fbbd 1163 bd3a 9982 0abc
000000a0: aa6d 7dbd dbf9 dc3a c0fa 98bc 54c1 ac3c
000000b0: b806 4c3d dac1 ed3c 7f42 3abc 975b 443a
000000c0: 61e3 7d3d 85fe 123d 6f06 c4bc de6e c83c
000000d0: 5d82 ba3a e1a4 dbbb 514b 133c ff28 853c
000000e0: 8cfc 063d 3286 e73c b760 87bc 54c3 2dbc
000000f0: e5bb c63d 0cdb ae3d 3c03 2abb 7ff0 e73c
00000100: 56db 453d f937 133d c339 833d d501 cf3c
00000110: d96d cabc f798 84bd f102 f7bb 6294 89bc
00000120: 14a2 003d 3d2e 783d 9c47 a9bb 19e3 62bd
00000130: 1a92 b6bc cb8a c4bb e883 18bc 9c5f 253d
00000140: a1ff 8d3c f47d 9dbb 1b89 c4bd e95e e5bd
00000150: a190 d4bd f8b1 c8bd 21a8 c4bc 154e 11bd
00000160: 6cf3 2ebd 28f9 c5bc 68d0 1cbd dc42 62bd
00000170: 202d e9bd ec14 bdbd 3371 00be c661 cebd
00000180: 53db 663c 1ce9 4d3d eae8 f43c db10 683d
00000190: fcf2 f73c f790 8fbb 0c08 54bd 6b2f 38bd
000001a0: a2cd 6fbc 69ba 7bbd c4e5 b73c 4c6b b33c
000001b0: 13a9 a43d 94ce 6c3d 8fde 343d 2e67 f83c
000001c0: b0aa c43d 5288 c93c d595 533d 795f 953d
000001d0: ed14 f23d 3285 f03d 0deb 923d 896d 903d
000001e0: 1f35 243d 9300 c33d de7d ad3c aa09 db3c
000001f0: ab64 2b3c ba0e 6ebc a746 7a3d 1485 763d
00000200: a6c3 183d 3301 d5bc 6cbe 1dbd 7afc dc3c
00000210: af69 a33d 6cec ce3d ea41 a03d 328c 9a3d
00000220: 02f0 0f3e 5981 0f3e 6b0e 1a3e a9d0 123e
00000230: f9d0 ea3c 96a4 84bc 5147 58bb 8463 8ebd
00000240: 0e9c 903b 2c21 18bd 37e7 003d e04f 85bc
00000250: c66c 01bc b5f7 513c ae23 423d 5671 523d
00000260: 7391 a33d 6965 84bc 1328 61bd 8462 d5bd
00000270: 755d f93c af2e 2abc 327f 0bbd 7a99 73bc
00000280: acf8 aebc fafc 4ebc e6ae 393d 7488 203c
00000290: c27f 69bd 7c78 99bd 4039 9dbd 7398 96bd
000002a0: 97dd a9bc 1c79 203d e5dd 1b3d f1ff e23c
000002b0: 487a 133d fd7b d53b 0c1f 85bd 4e22 28bd
000002c0: 4f8f 91bd 429e 8cbd 7ba0 f5bd 1964 f0bd
000002d0: 0cd9 f33c 202c cf3d 15f9 0b3d 89a5 ef3c
000002e0: 6d0b 04bb a4dd a3bd c786 60bd 3b9c 243d
000002f0: 555a 753c 834b 2f3d 3f6c b9bc 1efe 79bd
00000300: 0b69 1c3d 93e4 d53c c981 b6bc 05c4 44bd
00000310: c530 7bbc 6eef 77bd 3d43 063d fb56 cbbc
00000320: 6f58 923c e03f 3ebd 7595 79bd 1d74 94bb
00000330: c243 7cbc ed47 82bd 2f62 18bd 97f1 27bc
00000340: 41dc 42bd a96f 06bd 0ebe 54bd 9252 58bb
00000350: 5d95 d7bd 2dcb 84bd 603f 9dbd 0a04 7abd
00000360: 2623 393c 855a 093d c0e9 f33c 0ecc 873d
00000370: d86c 923d c67c 6c3d 7b7d 853c b0d8 89bc
00000380: 0020 81bc 8fdb 12bd b85f 6bbd 52fc 13bd
00000390: 3cd5 c4bd 308b 70bd c5cd 083d f945 b13d
000003a0: edee 003d 00d8 a43b ceff f9bc 8ff5 bbbd
000003b0: c0d3 0dbe 4965 89bd adf7 2bbd e296 8bbd
000003c0: 31d0 25bd dcf0 a6bc 5e76 ce3c a537 583d
000003d0: 2692 7e3d f31e cc3c dc1c 84bc ce19 cebc
000003e0: 42b5 14bc 3a38 47bd d73f 05bd 0cc0 41bc
000003f0: 72df 103d 438f 753d 54d9 9c3d 44d2 bb3c

conv1.0.bias f4 [24]
-0.0069577205 0.04505422 -0.0025656968 -0.0049249725 -0.04779588 -0.0014082373 0.019143105 -0.029320614
-0.015319471 0.0050264318 0.017342199 0.039891653 0.038168807 0.022481488 0.047632113 -0.023028933
0.0036083471 -0.014764762 -0.02326295 0.006162602 0.04004507 0.007857155 -0.020034017 -0.021191962
00000000: 97fd e3bb c68a 383d 4025 28bb aa61 a1bb
00000010: 9dc5 43bd 9a94 b8ba 00d2 9c3c c931 f0bc
00000020: 85fe 7abc c4b4 a43b 3a11 8e3c 6e65 233d
00000030: e556 1c3d 192b b83c e419 433d 2ca7 bcbc
00000040: 057a 6c3b e6e7 71bc f191 bebc a7ef c93b
00000050: 4d06 243d 4cbb 003c 611e a4bc c49a adbc

conv1.1.weight f4 [24]
1.0127932 1.0971074 0.9716589 1.0114436 0.9360964 1.1258711 0.98716474 1.0155824
0.9132485 0.9631493 1.0319339 1.022147 0.94516116 1.0194485 1.0832478 0.9243107
0.9288083 0.9929434 0.92816365 1.0475451 1.0711379 0.9602387 1.0597959 1.0140654
00000000: 35a3 813f 046e 8c3f a3be 783f fc76 813f
00000010: 03a4 6f3f 8b1c 903f d4b6 7c3f 9bfe 813f
00000020: a7ca 693f f490 763f 6916 843f b7d5 823f
00000030: 15f6 713f 4a7d 823f dda7 8a3f a09f 6c3f
00000040: 61c6 6d3f 8a31 7e3f 229c 6d3f f515 863f
00000050: 0c1b 893f 34d2 753f 64a7 873f e5cc 813f

conv1.1.bias f4 [24]
0.023518955 -0.0076591135 -0.10187525 -0.043298315 -0.053859536 -0.10064547 -0.11425927 -0.098370515
0.019908283 0.014109261 0.016269727 0.097934626 0.006871033 -0.032717694 -0.06655163 -0.03701112
-0.090951234 -0.10964372 -0.22708774 0.040638395 -0.031042147 -0.008736374 0.019601306 -0.065053284
00000000: d3aa c03c 4df9 fabb f9a3 d0bd 9359 31bd
00000010: d19b 5cbd 361f cebd c400 eabd 7b76 c9bd
00000020: b216 a33c 882a 673c 1748 853c f391 c83d
00000030: 6726 e13b fd02 06bd 394c 88bd f998 17bd
00000040: a444 babd e38c e0bd b089 68be 7274 263d
00000050: 1a4c febc 0223 0fbc eb92 a03c a83a 85bd

conv1.1.running_mean f4 [24]
-1.7762184 -2.9815114 -2.4821405 -2.1927722 -6.8624787 -2.6295626 -4.102897 -1.041929
-2.5682924 -2.8061223 -3.279148 -2.8954203 -3.4875731 -5.642846 -1.8324778 -1.7216383
-5.5068355 -2.8643596 -2.2807581 -2.840626 -2.525963 -2.3167431 -2.9381146 -4.221544
00000000: 205b e3bf 15d1 3ec0 64db 1ec0 6156 0cc0
00000010: 6d99 dbc0 c14a 28c0 ef4a 83c0 ee5d 85bf
00000020: e75e 24c0 8297 33c0 90dd 51c0 914e 39c0
00000030: 6634 5fc0 3292 b4c0 a28e eabf a55e dcbf
00000040: ff37 b0c0 ab51 37c0 f1f7 11c0 d1cc 35c0
00000050: 61a9 21c0 8545 14c0 120a 3cc0 e316 87c0

conv1.1.running_var f4 [24]
105.18188 96.967674 121.81647 84.16195 295.67993 110.834816 126.187515 69.13683
130.48761 131.03114 156.32204 107.823555 139.76532 235.20274 110.941444 106.20347
213.1218 95.41781 106.09964 107.40838 120.86812 106.593895 105.07725 166.75908
00000000: 1f5d d242 73ef c142 08a2 f342 eb52 a842
00000010: 08d7 9343 6dab dd42 0260 fc42 0f46 8a42
00000020: d47c 0243 f907 0343 7152 1c43 a9a5 d742
00000030: ecc3 0b43 e733 6b43 05e2 dd42 2d68 d442
00000040: 2e1f 5543 ebd5 be42 0433 d442 17d1 d642
00000050: 7abc f142 1330 d542 8d27 d242 53c2 2643

conv2.0.weight f4 [48, 24, 8, 8]
-0.022125572 -0.023865135 -0.031336028 -0.040908683 -0.052305028 -0.060790792 -0.050233755 -0.012501102
0.030819606 0.012968314 0.06375997 0.0036059723 -0.040623773 0.025187287 0.060162008 0.05448195
-0.003841135 -0.019054638 -0.03126255 -0.0026550533 -0.014446503 -0.0075438307 0.0016112817 0.041292217
0.02511903 -0.008874402 -0.04051335 -0.016939014 -0.038800098 -0.06636208 -0.035287347 -0.019687558
-0.029330939 -0.057642847 -0.03673134 -0.022516496 -0.038125493 -0.004408588 -0.042779833 -0.04029564
-0.04133085 -0.008644382 -0.05405171 -0.003935479 -0.007621571 -0.014506492 -0.028659688 -0.0036265342
-0.04192808 -0.03543223 -0.03668425 -0.05984656 -0.056077316 -0.054503296 -0.10056207 -0.03166939
-0.046687845 -0.059530627 -0.103452526 -0.09119307 -0.10999415 -0.11608272 -0.09133506 -0.025862144
0.06793222 0.010401106 0.010539362 -0.008101816 0.035065126 0.061051734 -0.0069455737 -0.037102394
0.029194754 0.008963391 -0.015746491 0.00985122 0.024975564 -0.017504685 -0.013747957 -0.028291833
-0.027373755 -0.020454451 -0.03908281 -0.031237358 -0.0034873164 -0.066445805 -0.06114088 -0.047334164
-0.048731066 -0.02788749 -0.0012578552 -0.023536615 0.031073535 0.004171603 -0.033147942 -0.003255895
-0.022398537 -0.004045027 0.03452775 0.012169772 0.026037304 0.010404865 0.00047613797 -0.00052669214
0.055475634 0.08008906 0.10018118 0.063523084 0.027144639 0.01446313 0.0025473612 -0.015067927
0.0632203 0.05026068 0.0795157 0.017626857 0.05132265 0.0734184 0.10027267 0.034361284
0.017751925 0.036344007 0.026464032 0.038394887 0.05595579 0.06754751 0.034133494 -0.0045158253
-0.032259885 -0.026767606 -0.016562313 -0.0009493204 0.047020424 -0.001341407 0.014378119 -0.0024607198
-0.0055080582 -0.0060296403 -0.013999717 -0.013900135 0.01956463 0.00994661 0.03979485 -0.009299131
-0.024475921 -0.02862365 -0.043842763 -0.03501744 -0.008478892 -0.031373024 0.0037994634 0.01742763
-0.030099979 -0.031952236 -0.029426457 -0.0074421735 0.00068924396 -0.028768625 -0.051950302 -0.016871821
-0.035860687 -0.036521185 -0.00020780625 -0.032242503 -0.04662016 -0.041947 -0.035955187 -0.022266632
-0.081003636 -0.0032658428 0.011757848 -0.018323582 -0.02466122 0.0024883721 -0.006615469 0.002168568
-0.028392779 0.0025454261 0.010880186 -0.030121332 -0.051620595 -0.022652827 0.002530993 -0.013333415
-0.013627132 0.010001213 0.043561358 -0.026867887 -0.025192142 -0.0024732521 -0.021607798 -0.05290862
-0.0019952394 -0.033051625 -0.010769576 -0.01450414 0.003588921 0.06399427 0.07086715 0.054984063
-0.0012546782 -0.0378892 -0.0143660605 -0.07557842 -0.04619749 -0.037339263 -0.029178254 -0.015690695
-0.03767506 -0.0072524296 -0.0009319594 0.01176382 0.026146188 0.0014952589 -0.019483043 -0.04577755
0.012138305 0.02042295 0.019874 -0.00076990965 0.02010883 0.0066678566 0.035094064 0.04118879
-0.036090955 -0.009960106 -0.017894106 -0.061537758 -0.010166528 -0.016210703 -0.024829736 0.00065832335
-0.0114792865 0.007305386 0.0017722234 0.0055372366 -0.06859219 -0.046657283 -0.049865577 -0.029763432
0.0128185 0.031061444 0.0048922994 -0.0384971 -0.034128148 0.012547127 -0.01074579 -0.01838411
0.010406998 -0.00027341067 0.00036296196 -0.041360676 -0.023215635 0.04401895 0.029425865 0.030284606
00000000: b040 b5bc d180 c3bc 355a 00bd dd8f 27bd
00000010: cc3d 56bd c4ff 78bd e9c1 4dbd 6cd1 4cbc
00000020: 6679 fc3c 0d79 543c 9694 823d 2d52 6c3b
00000030: 1d65 26bd 9255 ce3c 706c 763d 7728 5f3d
00000040: 8dbb 7bbb 7918 9cbc 290d 00bd 6700 2ebb
00000050: 06b1 6cbc 3d32 f7bb a431 d33a 0722 293d
00000060: 6dc6 cd3c f165 11bc 54f1 25bd b0c3 8abc
00000070: daec 1ebd d8e8 87bd 7789 10bd cd47 a1bc
00000080: 7047 f0bc e81a 6cbd 9a73 16bd 8474 b8bc
00000090: 7a29 1cbd eb75 90bb e839 2fbd 0a0d 25bd
000000a0: 8a4a 29bd 2aa1 0dbc 5365 5dbd 31f5 80bb
000000b0: 5fbe f9bb a3ac 6dbc b9c7 eabc 26ab 6dbb
000000c0: c7bc 2bbd 6321 11bd 3942 16bd ab21 75bd
000000d0: 54b1 65bd d93e 5fbd 7df3 cdbd c3b7 01bd
000000e0: c13b 3fbd 63d6 73bd ebde d3bd 6fc3 babd
000000f0: 9d44 e1bd c7bc edbd e00d bbbd d9dc d3bc
00000100: 0c20 8b3d 6769 2a3c 4aad 2c3c 7bbd 04bc
00000110: 73a0 0f3d 6211 7a3d b297 e3bb aef8 17bd
00000120: d629 ef3c 30db 123c c9fe 80bc 0367 213c
00000130: 8e99 cc3c fc65 8fbc 1c3f 61bc 46c4 e7bc
00000140: ed3e e0bc 1890 a7bc 4c15 20bd 7de5 ffbc
00000150: 768b 64bb bd14 88bd dc6e 7abd 78e1 41bd
00000160: 3a9a 47bd 4e74 e4bc 9ede a4ba dccf c0bc
00000170: ed8d fe3c f1b1 883b 23c6 07bd db60 55bb
00000180: 237d b7bc 258c 84bb f86c 0d3d b963 473c
00000190: 2f4c d53c 2b79 2a3c 28a2 f939 b611 0aba
000001a0: 6b3a 633d bc05 a43d ca2b cd3d 6418 823d
000001b0: 6f5e de3c c4f6 6c3c a1f1 263b 77df 76bc
000001c0: a579 813d 25de 4d3d 21d9 a23d 3366 903c
000001d0: b337 523d 635c 963d c25b cd3d 6bbe 0c3d
000001e0: 7c6c 913c 74dd 143d 19cb d83c f543 1d3d
000001f0: e631 653d 5956 8a3d 90cf 0b3d 7df9 93bb
00000200: f122 04bd bd47 dbbc b0ad 87bc d0db 78ba
00000210: 7d98 403d 26d2 afba 3492 6b3c 0744 21bb
00000220: f17c b4bb 4a94 c5bb 125f 65bc 64bd 63bc
00000230: 0146 a03c 1bf7 223c edff 223d 625b 18bc
00000240: ba81 c8bc 257c eabc 7894 33bd 726e 0fbd
00000250: 0deb 0abc 0081 00bd 6b00 793b 64c4 8e3c
00000260: 3b94 f6bc 59e0 02bd c10f f1bc 7add f3bb
00000270: 61ae 343a 2eac ebbc d7c9 54bd c636 8abc
00000280: a8e2 12bd 3d97 15bd 91e6 59b9 b710 04bd
00000290: c8f4 3ebd 9ed0 2bbd bf45 13bd 8368 b6bc
000002a0: 3ce5 a5bd c007 56bb fda3 403c 561b 96bc
000002b0: 5406 cabc f513 233b 94c6 d8bb 891e 0e3b
000002c0: f997 e8bc 2ad1 263b cf42 323c 03c1 f6bc
000002d0: 1e70 53bd 6c92 b9bc 04df 253b 6574 5abc
000002e0: 5644 5fbc 21dc 233c 656d 323d 0b1a dcbc
000002f0: c05f cebc 4916 22bb d602 b1bc b6b6 58bd
00000300: 90c2 02bb 2461 07bd e072 30bc c6a2 6dbc
00000310: 1a34 6b3b 6e0f 833d cc22 913d f836 613d
00000320: 0474 a4ba b531 1bbd a05f 6bbc dcc8 9abd
00000330: 9439 3dbd 0ef1 18bd 3c07 efbc c689 80bc
00000340: 2a51 1abd caa5 edbb bd4e 74ba 0abd 403c
00000350: 8830 d63c 90fc c33a e79a 9fbc 3e81 3bbd
00000360: bedf 463c 084e a73c cdce a23c c3d3 49ba
00000370: 46bb a43c 097e da3b cbbe 0f3d 94b5 283d
00000380: 1cd4 13bd b62f 23bc a996 92bc 040f 7cbd
00000390: 8291 26bc 4fcc 84bc bb67 cbbc 5593 2c3a
000003a0: 9e13 3cbc 0562 ef3b f349 e83a b571 b53b
000003b0: 107a 8cbd b51b 3fbd d93f 4cbd 71d2 f3bc
000003c0: b004 523c 9274 fe3c 954f a03b 23af 1dbd
000003d0: f5c9 0bbd 7792 4d3c 1c0f 30bc 469a 96bc
000003e0: 1d82 2a3c 8f58 8fb9 ee4b be39 d069 29bd
000003f0: b72e bebc 374d 343d 830e f13c 6c17 f83c

conv2.0.bias f4 [48]
-0.0017814414 0.0051848167 -0.015812691 0.012967354 -0.015465365 0.006231976 0.005696693 0.022471977
-0.00951297 0.017194638 -0.016969102 0.004730813 0.00018574849 0.014495782 0.0038308126 0.017308274
0.014875677 0.005924949 -0.0017716743 0.015570023 0.014666091 -0.005476228 0.019455278 -0.0045330613
0.01849624 0.018827856 -0.0011996801 -0.018384337 -0.010955351 -0.0062449654 -0.011624942 -0.0017441297
-0.010791757 -0.005915057 -0.005041842 -0.0015690901 -0.0071866587 -0.00075990934 -0.017695146 0.01905616
0.011069652 -0.020906134 -0.02099062 -0.022137545 -0.0035185327 0.005865655 -0.012983474 -0.023946486
00000000: 417f e9ba 65e5 a93b 9e89 81bc 0675 543c
00000010: 7162 7dbc 9b35 cc3b 53ab ba3b 2717 b83c
00000020: 4adc 1bbc c5db 8c3c c902 8bbc f004 9b3b
00000030: 7bc5 4239 b77f 6d3c 5f0e 7b3b 15ca 8d3c
00000040: 1db9 733c 1326 c23b 8637 e8ba 6919 7f3c
00000050: 0b4a 703c ee71 b3bb ad60 9f3c 138a 94bb
00000060: 6d85 973c e03c 9a3c 963e 9dba c09a 96bc
00000070: 137e 33bc 91a2 ccbb 8a76 3ebc 489b e4ba
00000080: e9cf 30bc 18d3 c1bb 0936 a5bb eda9 cdba
00000090: 107e ebbb a734 47ba 69f5 90bc aa1b 9c3c
000000a0: 7c5d 353c 5743 abbc 85f4 abbc cc59 b5bc
000000b0: 2f97 66bb ae34 c03b a3b8 54bc 6c2b c4bc

conv2.1.weight f4 [48]
0.9933615 0.9792842 0.9715457 0.9205445 0.98248214 1.1188959 0.849999 1.0589331
0.9959332 0.9687704 0.95644915 1.0680047 0.98312634 0.9780736 1.0516943 0.8918212
0.93622625 0.97595054 1.0669483 0.8132439 1.0495033 1.0233973 1.016311 1.1705462
0.9617804 1.0991579 1.0305203 0.9958171 1.0436416 1.0487175 1.036291 0.8833787
0.93733716 1.0474386 0.9305672 0.91090846 1.0215409 1.0297911 0.9197742 1.0032803
1.0218949 1.0274355 0.9679889 0.9690152 0.9661661 1.076987 1.0532256 0.9060484
00000000: f04c 7e3f 5fb2 7a3f 38b7 783f cea8 6b3f
00000010: f383 7b3f fb37 8f3f 8999 593f 1f8b 873f
00000020: 7af5 7e3f 5601 783f dad9 743f 61b4 883f
00000030: 2bae 7b3f 0863 7a3f eb9d 863f 654e 643f
00000040: 86ac 6f3f e5d7 793f c391 883f c130 503f
00000050: 2056 863f affe 823f 7b16 823f 75d4 953f
00000060: 3e37 763f 35b1 8c3f 17e8 833f dfed 7e3f
00000070: 0c96 853f 603c 863f 2fa5 843f 1b25 623f
00000080: 54f5 6f3f 7812 863f a739 6e3f 4c31 693f
00000090: dac1 823f 32d0 833f 5276 6b3f 7d6b 803f
000000a0: 74cd 823f 0283 833f 1fce 773f 6111 783f
000000b0: a956 773f b6da 893f 19d0 863f caf2 673f

conv2.1.bias f4 [48]
-0.10294612 -0.12555118 -0.16743167 -0.30395937 -0.056746982 -0.08207237 -0.27017784 -0.03536713
-0.09260806 -0.10663151 -0.044351753 -0.052784815 -0.16528475 -0.067817904 0.007546716 -0.22926953
-0.13642342 -0.16315433 -0.121328 -0.22907095 -0.00154455 -0.12842126 -0.055459306 -0.042172987
-0.20304017 -0.031143261 -0.07507068 -0.076890536 -0.0465976 -0.053176828 0.025747463 -0.23172268
-0.26016623 -0.1761869 -0.19891302 -0.3359159 -0.22699396 -0.043123342 -0.23789981 -0.2754402
-0.16973366 -0.016582774 -0.040068947 -0.17923597 -0.045911826 -0.21907309 0.025282668 -0.3028078
00000000: 6ad5 d2bd 7d90 00be 3573 2bbe 90a0 9bbe
00000010: 866f 68bd 8f15 a8bd c054 8abe 20dd 10bd
00000020: 4ba9 bdbd 9f61 dabd 2faa 35bd e434 58bd
00000030: 6840 29be 1de4 8abd 714a f73b a2c5 6abe
00000040: 95b2 0bbe ee11 27be d17a f8bd 9391 6abe
00000050: 7f72 caba dd80 03be 4c29 63bd 95bd 2cbd
00000060: c3e9 4fbe 2720 ffbc a8be 99bd c978 9dbd
00000070: 20dd 3ebd f2cf 59bd 58ec d23c b648 6dbe
00000080: 8234 85be 576a 34be dbaf 4bbe 2bfd abbe
00000090: 1b71 68be 1aa2 30bd 029c 73be 7f06 8dbe
000000a0: a9ce 2dbe 99d8 87bc 561f 24bd a289 37be
000000b0: 0a0e 3cbd b254 60be 991d cf3c a009 9bbe

conv2.1.running_mean f4 [48]
-0.8935498 0.4320623 -1.1151373 -1.3283219 -2.3821967 -0.6764135 4.653666 -1.0763876
-1.8313507 -3.1422174 -1.4125736 -1.8299522 -1.1631377 -1.2739917 -0.77834237 -0.889009
-0.094068274 -0.42662728 -0.6475698 3.162684 -1.6158602 -1.4189445 0.1376607 -0.7712918
-0.57249814 -0.87094015 -0.5685355 -0.077261984 -1.2453452 -0.26790872 -0.63630325 -0.18413514
-2.0838661 -0.8620181 -1.7799038 0.18816912 -1.6681974 -1.5715917 3.4125059 -1.3050698
-1.2548623 -1.4437766 -0.0694431 0.32165703 -0.81887263 -0.34760892 -0.69102556 -0.22791438
00000000: aebf 64bf 4537 dd3e d2bc 8ebf 7406 aabf
00000010: e975 18c0 6f29 2dbf d5ea 9440 12c7 89bf
00000020: b369 eabf 171a 49c0 36cf b4bf e03b eabf
00000030: b2e1 94bf 2912 a3bf 7241 47bf 1896 63bf
00000040: dea6 c0bd e46e dabe 22c7 25bf 6a69 4a40
00000050: 82d4 cebf f99f b5bf edf6 0c3e 6173 45bf
00000060: 3d8f 12bf eff5 5ebf 8b8b 11bf 883b 9ebd
00000070: 7967 9fbf 552b 89be c5e4 22bf ec8d 3cbe
00000080: 105e 05c0 38ad 5cbf e3d3 e3bf 68af 403e
00000090: 7e87 d5bf eb29 c9bf 7f66 5a40 870c a7bf
000000a0: 549f a0bf accd b8bf 2f38 8ebd 3bb0 a43e
000000b0: a3a1 51bf ccf9 b1be 0de7 30bf 6362 69be

conv2.1.running_var f4 [48]
6.02572 1.9752352 4.6723056 2.4368544 7.4113107 2.0528042 7.4467545 3.2761412
4.6211376 6.3401356 7.468541 4.390504 2.5147302 1.6821152 3.2448435 4.4134874
4.149964 5.334237 3.7983327 6.075399 3.9684045 2.8258495 3.2583394 3.062165
4.369341 3.8161786 2.4130316 1.8285774 2.895493 2.1199512 2.1660266 1.4742229
2.092944 4.5575743 2.7814567 2.8823044 2.097565 8.201415 4.0523176 1.9899899
2.3584585 8.153222 5.2303705 2.3243132 3.353189 2.6470728 3.0439737 3.8594985
00000000: b3d2 c040 82d4 fc3f 8783 9540 6cf5 1b40
00000010: 7529 ed40 2561 0340 d04b ee40 4cac 5140
00000020: 5ce0 9340 64e2 ca40 4afe ee40 027f 8c40
00000030: 57f1 2040 8d4f d73f 84ab 4f40 4a3b 8d40
00000040: 81cc 8440 12b2 aa40 e217 7340 ab69 c240
00000050: 57fa 7d40 b8da 3440 a288 5040 83fa 4340
00000060: a4d1 8b40 453c 7440 1c6f 1a40 d30e ea3f
00000070: c24f 3940 48ad 0740 2ea0 0a40 56b3 bc3f
00000080: cbf2 0540 a6d7 9140 6303 3240 ad77 3840
00000090: 813e 0640 ff38 0341 96ac 8140 fdb7 fe3f
000000a0: fcf0 1640 9973 0241 325f a740 8cc1 1440
000000b0: a69a 5640 a469 2940 77d0 4240 0602 7740

conv3.0.weight f4 [96, 48, 4, 4]
-0.01775111 -0.0030719277 0.01572231 0.038605653 0.007232147 -0.074087605 0.0150196655 0.034610134
-0.031006325 -0.035682127 -0.04119695 -0.05735754 0.022413574 -0.026153872 -0.022949424 0.015706347
0.035276618 -0.0053467173 0.007052099 -0.00016093627 -0.075684495 -0.016516235 -0.005799863 0.042730857
-0.004166367 -0.03127454 0.04438471 0.03317719 -0.024829827 -0.024107587 -0.0020857828 -0.03982412
-0.021469371 0.018426174 -0.047253948 0.010362683 -0.02758288 0.021169692 -0.058806952 0.008559729
-0.041674614 0.0022691498 0.05103813 0.033159096 0.02843379 -0.020559387 -0.03102652 0.017085295
0.03506519 -0.05760188 -0.028472526 -0.025838707 0.003764922 0.020995889 0.0076095406 0.032122992
-0.034955185 -0.06263793 -0.078445226 -0.043234076 0.16916728 0.061679766 -0.012483228 0.061158586
-0.04707385 -0.023750152 -0.07939606 0.0073835105 -0.0024055305 0.006582819 -0.029342184 -0.003858285
0.017686782 0.023904027 -0.0021010488 -0.06350474 0.02253691 -0.0010083596 0.0044621583 0.018084178
-0.057383668 -0.0671941 -0.077027254 -0.0370444 -0.009793816 0.011629257 0.04505527 0.04752113
-0.036606304 -0.0270735 -0.07612438 -0.04757228 0.09881787 0.047729265 -0.041045986 0.053495415
-0.074438035 -0.069624536 -0.009740249 -0.034875643 -0.0021325964 -0.0048299343 0.02438701 -0.02134176
-0.021028753 -0.0372694 -0.043692954 -0.040109843 -0.033182986 -0.03166928 -0.049393367 0.0019180434
-0.014534561 -0.065378204 -0.10884233 -0.04255229 0.068366624 0.18540843 0.18367289 0.14323309
-0.025820654 0.003792557 -0.061151348 -0.013786984 0.011540388 -0.0314777 -0.072895266 -0.061241094
-0.09791338 -0.08456695 -0.09417937 -0.038776353 0.05265063 0.06615825 0.057728652 0.022287296
0.038935024 0.08556321 0.028371064 0.045521256 -0.041868504 0.0036186345 -0.039812814 -0.031148791
-0.10431675 -0.1524602 -0.15371451 -0.11003784 0.04946415 0.0716562 0.014635695 -0.02486493
0.1517365 0.012714973 -0.012898643 0.01825901 0.08495157 0.021440426 -0.05013675 -0.03443244
-0.062485836 -0.062815785 -0.03202394 0.029023279 -0.017719653 0.017213358 -0.026971474 0.038295347
0.011036981 0.014938866 -0.009737022 0.0087988945 -0.06423947 -0.10156264 -0.11371334 -0.036300723
0.005686604 0.01260139 -0.08333812 -0.03408849 0.011944801 0.023118708 -0.013832573 -0.0072877877
0.022715509 -0.014105637 -0.07166188 -0.020810025 0.083722465 0.075802684 0.027311409 0.013872031
0.048280578 0.061880507 -0.010917757 0.0179334 -0.04355138 0.015164561 -0.045276742 -0.006713532
0.02943224 0.029536815 0.026298368 -0.008425682 0.042367842 -0.040758524 -0.035728086 -0.08527161
0.036520105 0.039174285 -0.030899273 0.0009575487 0.021716136 -0.0065946914 -0.06686789 -0.026264219
-0.0066369977 -0.03576737 0.0071551255 0.04975223 0.015500417 0.023954684 0.080793776 0.085488886
0.14454779 0.04654623 -0.0569605 0.00049442175 -0.08508075 -0.18951356 -0.19304606 -0.116649725
0.1050654 0.035757013 0.033860177 0.004353286 0.027450155 -0.053078838 -0.077402994 -0.070333526
0.031716485 0.00971772 0.035397287 0.03306838 -0.035021063 -0.069915764 -0.071615614 -0.013076827
-0.018693091 0.046210684 0.040294424 0.0697162 -0.0017074284 -0.022718238 0.061501116 0.05121064
00000000: c76a 91bc 6552 49bb 13cc 803c f620 1e3d
00000010: a5fb ec3b 3ebb 97bd 0b15 763c 5bc3 0d3d
00000020: fa00 febc 6c27 12bd 22be 28bd bdef 6abd
00000030: ac9c b73c a540 d6bc 6e00 bcbc 99aa 803c
00000040: 377e 103d 8433 afbb 4b15 e73b 00c1 28b9
00000050: 7900 9bbd 0e4d 87bc c70c bebb 8d06 2f3d
00000060: 0586 88bb bb19 00bd becc 353d cee4 073d
00000070: ec67 cbbc 467d c5bc a1b1 08bb 9e1e 23bd
00000080: 89e0 afbc 7df2 963c 5b8d 41bd 3ec8 293c
00000090: 7ef5 e1bc 106c ad3c 8fdf 70bd 1b3e 0c3c
000000a0: 00b3 2abd 04b6 143b 5c0d 513d d5d1 073d
000000b0: fbed e83c 296c a8bc 542b febc 76f6 8b3c
000000c0: 84a0 0f3d f3ef 6bbd 373f e9bc b2ab d3bc
000000d0: e9bc 763b 92ff ab3c 7459 f93b 6693 033d
000000e0: 2b2d 0fbd 5148 80bd e4a7 a0bd 3716 31bd
000000f0: 303a 2d3e eca3 7c3d 7486 4cbc 6d81 7a3d
00000100: 82d0 40bd ae8f c2bc 679a a2bd 60f1 f13b
00000110: 1ba6 1dbb b0b4 d73b 055f f0bc 48db 7cbb
00000120: dfe3 903c 61d2 c33c c0b1 09bb c60e 82bd
00000130: 539f b83c ef2a 84ba 4c37 923b 4525 943c
00000140: 230b 6bbd 0f9d 89bd 77c0 9dbd debb 17bd
00000150: 3e76 20bc a488 3e3c e08b 383d 84a5 423d
00000160: 7ef0 15bd 3fc9 ddbc 19e7 9bbd 27db 42bd
00000170: 0661 ca3d c37f 433d d61f 28bd 021e 5b3d
00000180: f872 98bd 4f97 8ebd 9195 1fbc c3d9 0ebd
00000190: 08c3 0bbb 6d44 9ebb 44c7 c73c ead4 aebc
000001a0: 7e44 acbc cca7 18bd 62f7 32bd 384a 24bd
000001b0: e2ea 07bd a6b7 01bd b350 4abd db66 fb3a
000001c0: 5e22 6ebc 02e5 85bd bae8 debd 4f4b 2ebd
000001d0: cd03 8c3d b5db 3d3e bf14 3c3e b2ab 123e
000001e0: d685 d3bc 8c8c 783b d679 7abd cde2 61bc
000001f0: e513 3d3c c3ee 00bd 1d4a 95bd f1d7 7abd
00000200: cf86 c8bd 7031 adbd 1de1 c0bd f4d3 1ebd
00000210: 30a8 573d fa7d 873d e174 6c3d d993 b63c
00000220: 557a 1f3d c43b af3d 6f6a e83c 7f74 3a3d
00000230: 4f7e 2bbd 9d26 6d3b c312 23bd c02b ffbc
00000240: 05a4 d5bd 871e 1cbe 5667 1dbe 855b e1bd
00000250: ec9a 4a3d 7cc0 923d 8eca 6f3c 8ab1 cbbc
00000260: d060 1b3e 7652 503c d454 53bc eb93 953c
00000270: 17fb ad3d d5a3 af3c 315c 4dbd 0809 0dbd
00000280: 26f1 7fbd 90a5 80bd 892b 03bd 3ac2 ed3c
00000290: ce28 91bc 0703 8d3c 48f3 dcbc 95db 1c3d
000002a0: 74d4 343c 25c2 743c 0888 1fbc 3d29 103c
000002b0: fc8f 83bd 1300 d0bd 8ae2 e8bd 11b0 14bd
000002c0: b156 ba3b 0f76 4e3c 2dad aabd 5fa0 0bbd
000002d0: 20b4 433c 7263 bd3c 04a2 62bc 65ce eebb
000002e0: e015 ba3c 541b 67bc 77c3 92bd c979 aabc
000002f0: af76 ab3d 703e 9b3d 2dbc df3c 8447 633c
00000300: dbc1 453d 6a76 7d3d 64e0 32bc 11e9 923c
00000310: ef62 32bd c774 783c 1b74 39bd 30fd dbbb
00000320: e21b f13c 31f7 f13c ad6f d73c df0b 0abc
00000330: e789 2d3d 69f2 26bd 9d57 12bd e2a2 aebd
00000340: 1b96 153d 3775 203d 7920 fdbc 0104 7b3a
00000350: 0ae6 b13c 4818 d8bb 08f2 88bd 0f28 d7bc
00000360: 2c7b d9bb ce80 12bd 8b75 ea3b ffc8 4b3d
00000370: 76f5 7d3c 9d3c c43c 3577 a53d cc14 af3d
00000380: 5604 143e 42a7 3e3d 6a4f 69bd 159c 013a
00000390: d13e aebd d80f 42be dead 45be 0de6 eebd
000003a0: 872c d73d f275 123d f8b0 0a3d 03a6 8e3b
000003b0: 26df e03c 3269 59bd 7685 9ebd 060b 90bd
000003c0: 25e9 013d 1237 1f3c bffc 103d b672 073d
000003d0: 3f72 0fbd ff2f 8fbd 35ab 92bd 3040 56bc
000003e0: 4122 99bc 6a47 3d3d c40b 253d 5ec7 8e3d
000003f0: cacb dfba 991b babc 98e8 7b3d 40c2 513d

conv3.0.bias f4 [96]
-0.00041210477 0.02754343 0.0016455231 0.007767096 -0.017762123 -0.027549759 -0.030230906 -0.008374385
0.03130714 0.03250036 -0.010968344 0.028603246 0.01418731 -0.030858297 0.005934903 0.006068041
0.008911141 -0.009343381 0.024499305 0.009897604 0.031587705 0.031760376 -0.030739067 0.0105900355
0.030829396 -0.021833789 0.00041915983 -0.0059313597 -0.006614388 0.015497747 0.023316953 0.018795704
0.020905463 0.0035191525 0.029673178 -0.0056990087 0.017191332 -0.01167528 -0.02676869 -0.016879072
-0.02577972 -0.011592924 0.010316387 0.004496784 0.014832394 -0.007061805 -0.006856289 -0.027949257
-0.012927653 -0.0057451553 -0.025241634 -0.010609976 0.035069775 -0.00049975124 0.018627862 -0.0036710491
0.006803082 0.034525216 0.025542475 -0.032418273 0.009494971 0.014842986 -0.0102738 0.001444529
0.033343483 -0.007037959 -0.014201959 0.020518087 -0.0065266774 0.023214843 0.011767355 0.013610937
0.017448027 -0.017619306 -0.021328606 0.0010318041 -0.0054588113 -0.007300221 0.013980744 -0.018560236
0.0071542645 -0.028926635 -0.02409946 0.02215965 0.029372932 -0.02873033 0.0107984105 -0.00080174813
-0.0045305924 0.033422288 -0.0301523 0.034661017 -0.0015062088 -0.022609247 -0.031678397 -0.020077948
00000000: c40f d8b9 c2a2 e13c 98ae d73a 2083 fe3b
00000010: df81 91bc 08b0 e1bc cea6 f7bc b734 09bc
00000020: ea3b 003d 191f 053d 92b4 33bc 5b51 ea3c
00000030: e471 683c 8aca fcbc 9379 c23b 6bd6 c63b
00000040: 0900 123c fb14 19bc c4b2 c83c 8f29 223c
00000050: 1c62 013d 2b17 023d 7fd0 fbbc d481 2d3c
00000060: ee8d fc3c c6dc b2bc aec2 db39 da5b c2bb
00000070: 82bd d8bb 43ea 7d3c 3203 bf3c 73f9 993c
00000080: ef41 ab3c 95a1 663b 2a15 f33c c0be babb
00000090: d6d4 8c3c ac49 3fbc 034a dbbc fb45 8abc
000000a0: fe2f d3bc 3ff0 3dbc 1006 293c c259 933b
000000b0: 9203 733c b766 e7bb b9aa e0bb d7f5 e4bc
000000c0: 82ce 53bc db41 bcbb 8bc7 cebc 77d5 2dbc
000000d0: 53a5 0f3d bd01 03ba 7599 983c fc95 70bb
000000e0: 63ec de3b 506a 0d3d 743e d13c 06c9 04bd
000000f0: cb90 1b3c ff2f 733c 7153 28bc 5a56 bd3a
00000100: 2d93 083d ae9e e6bb 55af 68bc 8c15 a83c
00000110: bddd d5bb 0e2d be3c ddcb 403c 6800 5f3c
00000120: 2aef 8e3c 5d56 90bc 54b9 aebc 9a3d 873a
00000130: d4df b2bb b136 efbb 7e0f 653c a30b 98bc
00000140: 526e ea3b 8df7 ecbc 3b6c c5bc 2888 b53c
00000150: 819f f03c de5b ebbc d1eb 303c 682c 52ba
00000160: 5d75 94bb cfe5 083d f501 f7bc b6f8 0d3d
00000170: fb6b c5ba 0737 b9bc 35c1 01bd 827a a4bc

conv3.1.weight f4 [96]
0.94554335 0.7770586 0.8920695 0.81178725 0.8810262 0.8693386 0.87257767 0.81860286
0.8476627 0.76080614 0.7715791 0.8368165 0.8683786 0.9165778 0.8476435 0.86776495
0.79554355 0.88571495 0.9179905 0.8769737 0.90176564 0.7379773 0.9202181 0.9004666
0.73482734 0.74811745 0.8700045 0.7658714 0.79788166 0.77787316 0.9253042 0.72428375
0.8661757 0.9176041 0.9454004 0.8992696 0.8725941 0.67341375 0.8116856 0.8104278
0.8690532 0.7930692 0.7392365 0.89728355 0.8982899 0.76373684 0.94594926 0.7970422
0.83878803 0.9230154 0.8463617 0.8326218 0.8328319 0.8188569 0.73221326 0.8151446
0.95237714 0.88692415 0.8220817 0.8991904 0.8656181 0.8796869 0.9242292 0.89497423
0.9276657 0.9429595 0.87366384 0.86703146 0.86493057 0.94993573 0.9053487 0.7534115
0.8112984 0.87019646 0.8578623 0.7736753 0.73966694 0.87449926 0.7606535 0.7671288
0.90693444 0.80015886 0.85932183 0.80626553 0.9095998 0.8613274 0.931105 0.9421454
0.884133 0.7974914 0.79284185 0.72902274 0.8342335 0.9148911 0.76721907 0.8776564
00000000: 210f 723f 50ed 463f ab5e 643f 4ad1 4f3f
00000010: ef8a 613f f98c 5e3f 4061 5f3f f58f 513f
00000020: 6c00 593f 31c4 423f 3586 453f 9b39 563f
00000030: 0f4e 5e3f d8a4 6a3f 2aff 583f d825 5e3f
00000040: bea8 4b3f 37be 623f 6d01 6b3f 5981 603f
00000050: 1dda 663f 15ec 3c3f 6a93 6b3f fb84 663f
00000060: a51d 3c3f a084 3f3f 9db8 5e3f 2610 443f
00000070: f941 4c3f b222 473f bce0 6c3f a96a 393f
00000080: b1bd 5d3f 1ae8 6a3f c305 723f 8836 663f
00000090: 5462 5f3f d864 2c3f a1ca 4f3f 3278 4f3f
000000a0: 457a 5e3f 9506 4b3f 9a3e 3d3f 60b4 653f
000000b0: 54f6 653f 4284 433f bb29 723f f50a 4c3f
000000c0: d0ba 563f bd4a 6c3f 29ab 583f b426 553f
000000d0: 7934 553f 9ba0 513f 5472 3b3f 51ad 503f
000000e0: fdce 733f 760d 633f f273 523f 5831 663f
000000f0: 2699 5d3f 2933 613f 499a 6c3f 081d 653f
00000100: 807b 6d3f cb65 713f 6fa8 5f3f c6f5 5d3f
00000110: 176c 5d3f fd2e 733f efc4 673f 93df 403f
00000120: 40b1 4f3f 32c5 5e3f dd9c 5b3f 960f 463f
00000130: d05a 3d3f 2fdf 5f3f 30ba 423f 8e62 443f
00000140: db2c 683f 36d7 4c3f 84fc 5b3f 6b67 4e3f
00000150: 88db 683f f47f 5c3f e65c 6e3f 7130 713f
00000160: 8a56 623f 6528 4c3f aff7 4a3f 3ca1 3a3f
00000170: 5490 553f 4e36 6a3f 7868 443f 17ae 603f

conv3.1.bias f4 [96]
-0.1084484 -0.17878483 -0.17559744 -0.13045605 -0.14811504 -0.18663214 -0.16193649 -0.2658136
-0.17350493 -0.2163632 -0.20920973 -0.24165401 -0.12635104 -0.12147021 -0.16248785 -0.16411987
-0.2040091 -0.18068564 -0.11352163 -0.19590135 -0.14989403 -0.14839609 -0.07542294 -0.14161615
-0.14001715 -0.18419446 -0.14195307 -0.1603087 -0.23027763 -0.18310137 -0.13001822 -0.1896493
-0.16476199 -0.13713208 -0.113526665 -0.12936649 -0.16166879 -0.144137 -0.1102847 -0.26021135
-0.18106994 -0.20289361 -0.14897667 -0.13778329 -0.17967957 -0.17808989 -0.14004546 -0.18744203
-0.18017155 -0.15576422 -0.19157511 -0.13723654 -0.12822595 -0.16478316 -0.1868995 -0.14559014
-0.07428365 -0.16184893 -0.084426254 -0.2115554 -0.15094563 -0.19000691 -0.18513978 -0.14947614
-0.080720164 -0.07064125 -0.1328183 -0.1841395 -0.15602297 -0.10065021 -0.10518746 -0.17620938
-0.19515592 -0.14992546 -0.16412629 -0.116695985 -0.17956443 -0.15224797 -0.16534941 -0.15287143
-0.14421391 -0.104669705 -0.15259011 -0.1737143 -0.14651644 -0.16683254 -0.10391793 -0.12599857
-0.1464107 -0.098034374 -0.15416107 -0.23144208 -0.14743277 -0.16495503 -0.09871689 -0.17500524
00000000: 321a debd 5f13 37be d1cf 33be 4596 05be
00000010: 78ab 17be 7f1c 3fbe aed2 25be b818 88be
00000020: 47ab 31be 518e 5dbe 133b 56be 2674 77be
00000030: 2b62 01be 60c5 f8bd 3763 26be 0a0f 28be
00000040: c3e7 50be a805 39be 077e e8bd 5d9a 48be
00000050: d27d 19be 25f5 17be 5877 9abd d303 11be
00000060: a860 0fbe 799d 3cbe 255c 11be f727 24be
00000070: e6cd 6bbe ed7e 3bbe 7f23 05be 6d33 42be
00000080: 5eb7 28be 5a6c 0cbe ab80 e8bd a678 04be
00000090: 818c 25be a698 13be f2dc e1bd 6c3a 85be
000000a0: 666a 39be 58c3 4fbe 578d 18be 1017 0dbe
000000b0: ecfd 37be 325d 36be 1468 0fbe cef0 3fbe
000000c0: e47e 38be a880 1fbe 442c 44be bc87 0cbe
000000d0: aa4d 03be ebbc 28be 9562 3fbe 9515 15be
000000e0: 0722 98bd babb 25be ace7 acbd fba1 58be
000000f0: 7e91 1abe 2c91 42be 4895 3dbe 4610 19be
00000100: 9d50 a5bd 5cac 90bd 8501 08be 118f 3cbe
00000110: 7cc4 1fbe b321 cebd 866c d7bd 3b70 34be
00000120: f4d6 47be 0f86 19be b910 28be 4efe eebd
00000130: bddf 37be e4e6 1bbe 5b51 29be 548a 1cbe
00000140: d0ac 13be 125d d6bd 9540 1cbe 29e2 31be
00000150: 6808 16be 26d6 2abe ecd2 d4bd c505 01be
00000160: b0ec 15be 3fc6 c8bd 66dc 1dbe 27ff 6cbe
00000170: 9ef8 16be f9e9 28be 152c cabd 9334 33be

conv3.1.running_mean f4 [96]
-1.7179948 0.44073868 -1.0882084 0.36090818 -1.9264568 -0.655923 -1.2129165 -0.907562
0.12954375 1.161552 0.73073494 -0.71846914 -1.8890308 -1.6427199 -2.0737329 -1.8221868
0.013776243 -1.3528789 -1.0421803 -0.96432817 -0.6178747 0.5643226 -1.0987129 -1.2130594
1.2437758 1.2516233 -0.8790667 0.016998192 1.1856221 -0.18769419 -0.56463075 1.1150213
-2.0273426 -1.5515081 -1.38922 -0.6442866 -1.4733229 0.98455095 1.9378246 -0.66174847
-0.42234045 -0.29013318 1.4104456 -1.2918315 -1.4005995 0.7136688 -1.2079775 0.15071405
-1.2726401 -2.3506885 -1.2955644 -1.7278765 -0.29390043 -0.4442217 0.79822874 -2.1597524
-1.904627 -1.194748 0.11805535 -1.4372237 -1.5408484 -1.4061164 -1.5882251 -1.9406953
-1.6289452 -0.06725042 -2.0675461 -2.5283685 -1.1806223 -1.6412965 -0.84054583 0.5431937
-1.3766332 -1.2171005 -1.5897635 0.5135881 0.8030387 -1.4647099 -1.8453373 1.2508088
-1.3272337 0.17350692 -1.4276856 -0.7858889 -1.146601 -1.3822837 -1.0237395 -2.037594
-1.0308167 0.9038812 -0.61133116 0.14279333 -1.7382153 -1.9528793 -0.09714435 -1.4753752
00000000: 41e7 dbbf 80a8 e13e 6a4a 8bbf f5c8 b83e
00000010: 2396 f6bf 92ea 27bf d940 9bbf fc55 68bf
00000020: 1ea7 043e bcad 943f 7211 3b3f 98ed 37bf
00000030: c3cb f1bf a544 d2bf 0ab8 04c0 6b3d e9bf
00000040: c0b5 613c 232b adbf 2a66 85bf 36de 76bf
00000050: 092d 1ebf 7277 103f a0a2 8cbf 8845 9bbf
00000060: 0c34 9f3f 3135 a03f 840a 61bf cb3f 8b3c
00000070: 77c2 973f e832 40be a48b 10bf 05b9 8e3f
00000080: fbbf 01c0 d197 c6bf f6d1 b1bf f7ef 24bf
00000090: d895 bcbf 880b 7c3f a30a f83f 5968 29bf
000000a0: 023d d8be 568c 94be 7b89 b43f bc5a a5bf
000000b0: d846 b3bf 00b3 363f 029f 9abf c954 1a3e
000000c0: dfe5 a2bf ae71 16c0 0ed5 a5bf 0f2b ddbf
000000d0: 1e7a 96be 0771 e3be b858 4c3f 6239 0ac0
000000e0: d1ca f3bf 81ed 98bf 01c7 f13d f2f6 b7bf
000000f0: 853a c5bf 9ffb b3bf f64a cbbf b468 f8bf
00000100: 4781 d0bf 97ba 89bd ad52 04c0 cad0 21c0
00000110: a21e 97bf 0116 d2bf 032e 57bf be0e 0b3f
00000120: 8435 b0bf f3c9 9bbf 5f7d cbbf 827a 033f
00000130: f293 4d3f 9d7b bbbf 0334 ecbf 811a a03f
00000140: cbe2 a9bf ccab 313e 67be b6bf 0430 49bf
00000150: d2c3 92bf acee b0bf e509 83bf f167 02c0
00000160: cdf1 83bf c264 673f 3380 1cbf 6a38 123e
00000170: d77d debf f3f7 f9bf 9ef3 c6bd 18d9 bcbf

conv3.1.running_var f4 [96]
3.4794116 2.6971166 7.121213 3.217811 5.6135354 3.973268 7.04589 1.8411405
2.0904717 4.1022625 2.5028577 0.70468843 5.618011 6.062888 10.510066 8.552638
2.1418934 4.825161 7.657608 5.8526006 3.5686915 3.6357956 3.8241754 6.498915
2.050766 5.521727 4.5603375 3.096463 4.2529745 2.6858115 5.8170047 3.9888766
8.784064 4.231205 6.097849 4.352827 4.5489764 6.2327 4.1436834 1.2733586
3.4609697 0.9318985 5.956319 2.8859813 4.4034824 3.6458802 1.7563422 1.4866955
4.819129 4.500547 4.9721456 8.580127 0.9517041 5.207478 1.6695061 8.997811
8.073555 5.6446195 3.7460625 5.524035 2.905933 4.812717 6.3384767 9.29411
6.573154 3.135096 9.330999 8.037353 4.3650265 4.145602 2.5413969 2.759806
5.01536 4.12592 8.087878 4.4015326 3.66207 6.6241727 1.6818036 3.7664037
8.086601 4.5234013 5.3637557 1.1985664 4.121449 5.082275 3.5461338 5.962327
4.1893287 4.6625094 2.6914203 1.5785785 6.062785 4.936843 4.0678635 5.1302943
00000000: aeae 5e40 8f9d 2c40 fae0 e340 9ef0 4d40
00000010: 15a2 b340 064a 7e40 ee77 e140 7eaa eb3f
00000020: 4aca 0540 bc45 8340 d22e 2040 7666 343f
00000030: bfc6 b340 2e03 c240 3b29 2841 9bd7 0841
00000040: c814 0940 b867 9a40 200b f540 8148 bb40
00000050: 7165 6440 e0b0 6840 4abf 7440 1df7 cf40
00000060: c03f 0340 fdb1 b040 49ee 9140 732c 4640
00000070: 5e18 8840 56e4 2b40 e724 ba40 c149 7f40
00000080: 878b 0c41 0866 8740 9421 c340 5c4a 8b40
00000090: 3791 9140 4772 c740 0e99 8440 6afd a23f
000000a0: 8780 5d40 e690 6e3f 2a9a be40 ebb3 3840
000000b0: 54e9 8c40 1a56 6940 d2cf e03f 0a4c be3f
000000c0: 4e36 9a40 7b04 9040 d11b 9f40 3348 0941
000000d0: e1a2 733f a9a3 a640 60b2 d53f 09f7 0f41
000000e0: 482d 0141 b9a0 b440 7dbf 6f40 e5c4 b040
000000f0: cefa 3940 c701 9a40 cdd4 ca40 adb4 1441
00000100: 4757 d240 6aa5 4840 c64b 1541 ff98 0041
00000110: 4cae 8b40 c6a8 8440 3fa6 2240 a9a0 3040
00000120: d47d a040 8907 8440 f367 0141 5bd9 8c40
00000130: 5b5f 6a40 39f9 d340 5745 d73f c20c 7140
00000140: b862 0141 b4bf 9040 e3a3 ab40 a06a 993f
00000150: e9e2 8340 ffa1 a240 dbf3 6240 62cb be40
00000160: fb0e 8640 4733 9540 3b40 2c40 dc0e ca3f
00000170: 5602 c240 9efa 9d40 f02b 8240 5f2b a440

fc4.weight f4 [2, 3840]
-0.011251908 -0.030778699 -0.027942134 0.0030518367 0.022130864 0.09490781 0.102096684 -0.009993884
0.016893838 0.021580467 -0.05557022 -0.04853785 -0.04733088 -0.04782162 -0.028093044 0.032180034
0.016778314 0.0043121884 0.001143593 0.014644269 -0.025619626 -0.030645387 0.0077764085 0.019385234
0.01222343 0.0015284944 -0.0037717682 -0.03457173 -0.010110647 0.026385423 0.009891905 0.002053239
0.011539252 -0.014008565 0.01780577 0.0035947636 -0.0111070955 0.010656871 0.0027980888 -0.011142945
0.0064750155 0.0115523515 0.007199543 0.004885107 0.0040616593 0.020385886 0.0110284295 0.008753336
0.051428262 0.013434391 -0.06416209 0.019913249 0.010799189 -0.017941408 0.0008116813 0.012619147
0.08050915 0.017304797 -0.052243378 -0.019547032 -0.017436754 0.030623745 0.027361428 -0.021173941
-0.027088879 -0.015560589 0.016177695 0.0004082919 -0.00071480754 0.0031513348 -0.04990938 -0.0062905904
0.06539598 -0.07957564 0.030524103 -0.07769752 -0.04426215 -0.012997355 0.0058157737 0.026624119
0.06225558 0.05955285 -0.060225554 -0.037489343 0.053013537 -0.03227215 -0.07920173 0.011152301
-0.014846804 -0.015529344 -0.0039385003 0.012590847 0.02129599 0.019271288 0.012334498 -0.0040621473
-0.014420065 -0.010536091 0.022915859 -0.007262492 0.017401304 -0.00273404 -0.00024435768 -0.004079886
-0.01731028 0.01492129 0.010099644 0.0049888664 0.010912587 -0.0012524122 -0.010179975 -0.008130989
-0.008181081 0.026321651 0.025091095 -0.008288845 0.0014403048 0.0043218844 -0.003084357 -0.0015394732
0.009804894 0.012774099 -0.0056431056 -0.009923682 0.005941596 0.0050021973 0.016495159 0.0033391875
0.013246742 0.035895817 -0.012691268 0.011435362 -0.057932872 -0.0052313576 -0.027774928 0.0020240038
-0.0011127441 -0.009122273 0.042886697 0.052656885 -0.045230098 0.012615367 -0.025318783 -0.029985227
0.018811913 0.047267184 -0.020308102 0.02999947 0.009963996 0.0032087276 -0.02335974 -0.0032628607
-0.0056510516 -0.013030969 -0.013332744 0.0050228755 -0.06416311 -0.007846393 -0.02984411 -0.0038790286
0.012545097 -0.0019810565 0.019115549 0.03555117 0.040130176 0.062297754 -0.0063404264 -0.097664796
-0.0118590025 -0.014907427 -0.059983127 0.018879425 0.02592889 -0.015729908 0.022096887 0.0071256454
0.02606007 0.014430787 -0.013254079 -0.0069037955 0.014857413 -0.002042884 0.011194345 -0.013698395
0.010760848 -0.0065409066 0.027702816 0.010201264 -0.03315976 -0.0073041017 -0.02142628 -0.024738653
-0.015363444 0.0099113975 -0.012430679 -0.01925057 -0.0027522047 -0.027870316 0.011192436 -0.017789593
-0.015410932 -0.009581353 -0.012300681 0.016032653 -0.0022612123 0.092911355 0.027048623 -0.056923363
-0.015655158 -0.006126147 -0.07541531 -0.06426062 0.01753505 -0.024160063 -0.053878024 0.017191097
0.00984444 0.020872356 -0.0038807024 0.013865169 -0.018149428 0.02976992 0.09031398 0.015189539
-0.0147506045 -0.0049356977 0.0021424952 0.006916033 -0.030391414 0.023137158 9.057105e-06 -0.027333397
-0.025665032 0.01999084 -0.00992979 0.00067970593 -0.020977385 0.011736678 -0.0021212127 0.011767735
-0.0031195006 0.015639873 0.008609484 -0.014818883 0.011631886 -0.012441858 0.010363536 0.013944235
-0.025562044 -0.007513034 0.053888686 0.015858816 0.030613048 0.040724732 -0.0041735107 0.023103101
00000000: ec59 38bc 9c23 fcbc e7e6 e4bc 5301 483b
00000010: c94b b53c 075f c23d 1118 d13d 63bd 23bc
00000020: f264 8a3c 85c9 b03c 999d 63bd a0cf 46bd
00000030: 06de 41bd 9ae0 43bd 6223 e6bc 36cf 033d
00000040: ad72 893c 424d 8d3b 9de4 953a 84ee 6f3c
00000050: 40e0 d1bc 090c fbbc 3ed1 fe3b c8cd 9e3c
00000060: c844 483c c357 c83a c52f 77bb 169b 0dbd
00000070: 21a7 25bc 3e26 d83c a811 223c a28f 063b
00000080: 210f 3d3c 2e84 65bc 68dd 913c 2096 6b3b
00000090: 89fa 35bc 289a 2e3c 2460 373b e690 36bc
000000a0: 5e2c d43b 1346 3d3c 25ea eb3b 3f13 a03b
000000b0: ab17 853b 4d00 a73c 96b0 343c 276a 0f3c
000000c0: 71a6 523d eb1b 5c3c 6a67 83bd 1c21 a33c
000000d0: 15ef 303c dcf9 92bc 03c7 543a 8ac0 4e3c
000000e0: fbe1 a43d cac2 8d3c 27fd 55bd 1921 a0bc
000000f0: 86d7 8ebc a6de fa3c 1325 e03c f974 adbc
00000100: 7fe9 ddbc d7f1 7ebc 1687 843c 0310 d639
00000110: ec61 3bba a086 4e3b c76d 4cbd 4c21 cebb
00000120: 54ee 853d 8ef8 a2bd af0d fa3c e11f 9fbd
00000130: 3a4c 35bd dcf2 54bc 3f92 be3b d31a da3c
00000140: b5ff 7e3d b0ed 733d 12af 76bd 6d8e 19bd
00000150: b924 593d cd2f 04bd 8434 a2bd 24b8 363c
00000160: 0240 73bc ca6e 7ebc 890e 81bb d749 4e3c
00000170: ee74 ae3c d2de 9d3c a216 4a3c c31b 85bb
00000180: 2342 6cbc 929f 2cbc 0aba bb3c 33fa edbb
00000190: 2e8d 8e3c 942d 33bb 221d 80b9 90b0 85bb
000001a0: 4ace 8dbc 6d78 743c fa78 253c a579 a33b
000001b0: b5ca 323c fb27 a4ba e9c9 26bc d737 05bc
000001c0: f109 06bc 81a0 d73c d78b cd3c f0cd 07bc
000001d0: 9cc8 bc3a 989e 8d3b ec22 4abb 26c8 c9ba
000001e0: b5a4 203c 744a 513c cde9 b8bb f096 22bc
000001f0: b8b1 c23b 79e9 a33b db20 873c 45d6 5a3b
00000200: dd08 593c 7e07 133d 09ef 4fbc 625b 3b3c
00000210: 054b 6dbd cf6b abbb 3f88 e3bc 26a5 043b
00000220: 7fd9 91ba 9675 15bc f6a9 2f3d bfae 573d
00000230: 3243 39bd afb0 4e3c 5669 cfbc 94a3 f5bc
00000240: 711b 9a3c 3c9b 413d 2d5d a6bc 73c1 f53c
00000250: 0740 233c 8449 523b ed5c bfbc b8d5 55bb
00000260: 752c b9bb d87f 55bc 9571 5abc ef96 a43b
00000270: f367 83bd 288e 00bc a37b f4bc 4d37 7ebb
00000280: f389 4d3c 9dd4 01bb 3698 9c3c 1b9e 113d
00000290: 8a5f 243d ee2b 7f3d 5ac3 cfbb 7b04 c8bd
000002a0: 434c 42bc 483e 74bc deb0 75bd 06a9 9a3c
000002b0: d368 d43c 02dc 80bc 8804 b53c 3f7e e93b
000002c0: ee7b d53c 1c6f 6c3c a327 59bc 3c39 e2bb
000002d0: 826c 733c e8e1 05bb 7c68 373c 3c6f 60bc
000002e0: 454e 303c 1a55 d6bb 04f1 e23c 3423 273c
000002f0: 87d2 07bd 3f57 efbb 2a86 afbc b7a8 cabc
00000300: f4b6 7bbc 6a63 223c 0caa 4bbc 5fb3 9dbc
00000310: 555e 34bb 4a50 e4bc 7b60 373c 7bbb 91bc
00000320: 227e 7cbc 1bfb 1cbc cc88 49bc e956 833c
00000330: d930 14bb 4f48 be3d 1395 dd3c 7928 69bd
00000340: 3f3f 80bc d9bd c8bb 5873 9abd 129b 83bd
00000350: aaa5 8f3c 53eb c5bc 34af 5cbd 58d4 8c3c
00000360: 934a 213c 81fc aa3c 6253 7ebb bc2a 633c
00000370: 1cae 94bc 0ce0 f33c 89f6 b83d 8bdd 783c
00000380: 85ac 71bc a2bb a1bb 1b69 0c3b e49f e23b
00000390: 6af7 f8bc 238a bd3c f8f3 1737 4aea dfbc
000003a0: 793f d2bc d5c3 a33c 8fb0 22bc 4b2e 323a
000003b0: c4d8 abbc 324b 403c 0b04 0bbb 75cd 403c
000003c0: 8970 4cbb 311f 803c cb0e 0d3c e6ca 72bc
000003d0: aa93 3e3c efd8 4bbc d2cb 293c 5c76 643c
000003e0: 7e67 d1bc e62f f6bb 62ba 5c3d 59ea 813c
000003f0: 37c8 fa3c face 263d f2c1 88bb b742 bd3c

fc4.bias f4 [2]
0.0024475593 -0.0030357107
00000000: 3b67 203b c6f2 46bb
