model_saved/bci/2.pt (torch, 673053 bytes, 21 tensors)

stft.window f4 [128]
000000 00 00 00 00 00 e2 1d 3a 80 c9 1d 3b 00 55 b1 3b
       0.0 0.00060227513 0.0024076402 0.005411744
000010 20 68 1d 3c 00 81 75 3c 50 5f b0 3c 80 6f ef 3c
       0.009607345 0.014984369 0.021529824 0.029227972
000020 10 e5 1b 3d 40 a1 44 3d 48 d3 71 3d 98 af 91 3d
       0.038060248 0.048005342 0.059039384 0.0711357
000030 3c 93 ac 3d f8 83 c9 3d f4 6f e8 3d 0e a2 04 3e
       0.0842652 0.09839624 0.11349478 0.12952444
000040 1a f6 15 3e 6e 29 28 3e ce 30 3b 3e 80 00 4f 3e
       0.14644662 0.16422054 0.18280336 0.20215034
000050 4e 8c 63 3e 88 c7 78 3e 8c 52 87 3e c0 8b 92 3e
       0.2222149 0.24294865 0.26430166 0.28622246
000060 76 08 9e 3e 96 c1 a9 3e e8 af b5 3e 0e cc c1 3e
       0.3086583 0.33155507 0.35485768 0.37850994
000070 91 0e ce 3e df 6f da 3e 59 e8 e6 3e 4d 70 f3 3e
       0.40245488 0.42663476 0.45099142 0.47546616
000080 00 00 00 3f da 47 06 3f d4 8b 0c 3f 11 c8 12 3f
       0.5 0.52453387 0.5490086 0.5733653
000090 b8 f8 18 3f fa 19 1f 3f 0d 28 25 3f 36 1f 2b 3f
       0.59754515 0.6214901 0.6451424 0.668445
0000a0 c6 fb 30 3f 20 ba 36 3f bc 56 3c 3f 1e ce 41 3f
       0.69134176 0.71377754 0.73569846 0.75705135
0000b0 ee 1c 47 3f e0 3f 4c 3f cc 33 51 3f a6 f5 55 3f
       0.7777852 0.79784966 0.8171966 0.83577955
0000c0 7a 82 5a 3f 7e d7 5e 3f 02 f2 62 3f 82 cf 66 3f
       0.8535534 0.87047565 0.88650525 0.9016038
0000d0 99 6d 6a 3f 0d ca 6d 3f cc e2 70 3f ec b5 73 3f
       0.9157348 0.9288643 0.94096065 0.95199466
0000e0 b0 41 76 3f 84 84 78 3f 06 7d 7a 3f fc 29 7c 3f
       0.9619398 0.970772 0.9784702 0.98501563
0000f0 60 8a 7d 3f 56 9d 7e 3f 36 62 7f 3f 88 d8 7f 3f
       0.9903927 0.99458826 0.99759233 0.99939775
000100 00 00 80 3f 88 d8 7f 3f 36 62 7f 3f 56 9d 7e 3f
       1.0 0.99939775 0.99759233 0.99458826
000110 5f 8a 7d 3f fc 29 7c 3f 05 7d 7a 3f 84 84 78 3f
       0.9903926 0.98501563 0.97847015 0.970772
000120 af 41 76 3f ec b5 73 3f cc e2 70 3f 0c ca 6d 3f
       0.96193975 0.95199466 0.94096065 0.92886424
000130 98 6d 6a 3f 81 cf 66 3f 01 f2 62 3f 7c d7 5e 3f
       0.91573477 0.90160376 0.8865052 0.87047553
000140 78 82 5a 3f a4 f5 55 3f cd 33 51 3f df 3f 4c 3f
       0.8535533 0.8357794 0.81719667 0.7978496
000150 eb 1c 47 3f 1f ce 41 3f ba 56 3c 3f 1f ba 36 3f
       0.777785 0.7570514 0.73569834 0.7137775
000160 c3 fb 30 3f 35 1f 2b 3f 0b 28 25 3f f7 19 1f 3f
       0.6913416 0.66844493 0.64514226 0.62148994
000170 b9 f8 18 3f 10 c8 12 3f d2 8b 0c 3f d7 47 06 3f
       0.5975452 0.5733652 0.5490085 0.5245337
000180 00 00 00 3f 4a 70 f3 3e 54 e8 e6 3e e0 6f da 3e
       0.5 0.47546607 0.45099127 0.4266348
000190 8e 0e ce 3e 09 cc c1 3e e2 af b5 3e 96 c1 a9 3e
       0.4024548 0.3785098 0.3548575 0.33155507
0001a0 72 08 9e 3e bb 8b 92 3e 8c 52 87 3e 84 c7 78 3e
       0.30865818 0.2862223 0.26430166 0.24294859
0001b0 46 8c 63 3e 82 00 4f 3e cc 30 3b 3e 68 29 28 3e
       0.22221479 0.20215037 0.18280333 0.16422045
0001c0 12 f6 15 3e 0e a2 04 3e ec 6f e8 3d ec 83 c9 3d
       0.1464465 0.12952444 0.113494724 0.09839615
0001d0 3c 93 ac 3d 94 af 91 3d 38 d3 71 3d 30 a1 44 3d
       0.0842652 0.07113567 0.059039325 0.048005283
0001e0 08 e5 1b 3d 70 6f ef 3c 40 5f b0 3c 00 81 75 3c
       0.038060218 0.029227942 0.021529794 0.014984369
0001f0 20 68 1d 3c c0 54 b1 3b 00 c9 1d 3b 00 e2 1d 3a
       0.009607345 0.0054117143 0.0024076104 0.00060227513

conv1.0.weight f4 [24, 3, 12, 12]
000000 b8 cf bf 3d 00 39 ba 3d c1 55 b8 3b da 22 39 bd
       0.09365791 0.09092903 0.005625457 -0.045199253
000010 f6 c5 00 be 22 9b 0a be f4 73 a8 bd 6b 62 89 bd
       -0.12575516 -0.13535741 -0.08225241 -0.06708225
000020 7d 42 2e bd 42 b2 18 3c dc 96 7e 3d bb 12 cc 3d
       -0.042543877 0.009319844 0.06215559 0.0996451
000030 83 77 33 3c 2c f9 be bc ad c4 9b bc d2 a0 85 3c
       0.010953787 -0.023312174 -0.01901468 0.016312037
000040 9c 10 e0 3b 53 e7 86 bd 92 5a b0 bb 0d 4d 99 bd
       0.0068379175 -0.0658709 -0.0053818906 -0.074853994
000050 74 df e1 bd 6c 36 a3 bd 21 10 03 bd c7 09 94 3d
       -0.110289484 -0.079693645 -0.031997804 0.072284274
000060 5c db bb bc e0 4d a3 3c 98 c4 4e 3d 07 e7 bb 3d
       -0.022931747 0.019934595 0.050480455 0.09174924
000070 17 76 b5 3d 4d 58 1c 3c 6d 25 6a bd e8 6e 61 bd
       0.088604145 0.009542537 -0.0571646 -0.05503741
000080 0d 9c 4c bd 06 b0 ba 3b d1 48 4c bd cc 59 ff bc
       -0.04995351 0.005697253 -0.04987413 -0.031170748
000090 f5 54 dc bd 21 7d 09 be 9f f3 05 ba 3e 14 10 bc
       -0.10758392 -0.13426639 -0.000510985 -0.008793889
0000a0 a1 0d 75 bd ad 10 91 bb 9f d7 e2 bc 07 ee 93 3c
       -0.05982745 -0.0044270367 -0.027690707 0.018057836
0000b0 ec 06 8a 3d 4f b3 60 3d 34 7e 33 bb f5 10 1f bc
       0.067396015 0.054858502 -0.0027388455 -0.009708633
0000c0 2f c9 a9 3d c9 c1 83 3d 38 6c 86 bc c9 3b d1 3c
       0.08290326 0.06433446 -0.016409025 0.025541203
0000d0 a2 77 6d 3c 9a 2a e4 3c 74 a4 45 3d 01 93 19 3d
       0.014493855 0.027852345 0.048252538 0.03749371
0000e0 79 9e 05 3d 68 3a 0b 3d b2 48 88 bc 18 34 11 3b
       0.032621834 0.033991247 -0.016636226 0.0022156294
0000f0 fe 35 fa 3d aa 29 ed 3d 26 36 d0 3c b8 ed 44 3d
       0.122173294 0.115802124 0.025416445 0.04807827
000100 4f 64 79 3d 26 22 3c 3d 34 ed a1 3d 0f 32 4b 3d
       0.060886677 0.045931004 0.07906571 0.049608286
000110 9e dc e6 bb a0 47 61 bd 7f 16 b9 bb e1 39 32 3b
       -0.0070453426 -0.054999948 -0.0056484337 0.0027195143
000120 0b da 81 3a 13 06 6a 3d 0b 07 6b 3c 5b e1 a7 bc
       0.0009906901 0.0571347 0.014344941 -0.0204932
000130 6f c5 86 3a fe 27 2e bc b8 14 d1 bc 52 18 96 3c
       0.0010282228 -0.010629652 -0.025522575 0.018322144
000140 1f ae 3a bb fd 80 33 3b 7a 87 c1 bd 9a 4a f6 bd
       -0.0028485132 0.0027390115 -0.09449668 -0.12025948
000150 8f 81 f3 bd 75 b7 d6 bd 96 4d 11 bd 2a a9 27 bd
       -0.11889946 -0.104842104 -0.035474382 -0.04093281
000160 66 a6 33 bd 2b 1c 96 bc 2f 84 30 bd 14 28 8a bd
       -0.04385986 -0.018323978 -0.04309481 -0.067459255
000170 74 f2 11 be 8e f7 e2 bd f1 a0 0e be 80 6b e4 bd
       -0.14252645 -0.110823736 -0.13928582 -0.111533165
000180 de 81 a4 3c 98 ed 54 3d f8 4a f0 3c 60 9c b3 3d
       0.020081457 0.0519844 0.029332623 0.087700605
000190 ed 83 a3 3d 09 c7 04 3d e3 39 16 bd 10 86 06 bd
       0.07984147 0.032416377 -0.0366763 -0.032842696
0001a0 ad 88 42 bc 9c 61 4a bd d3 b7 54 3d ed f0 8c 3d
       -0.011873406 -0.049409494 0.05193312 0.068818904
0001b0 3d f5 ac 3d 3f 7d 83 3d 32 93 44 3d d7 b4 50 3d
       0.08445213 0.06420373 0.04799194 0.050953712
0001c0 28 fa d7 3d 83 b0 cc 39 58 07 92 3c c5 90 87 3d
       0.105457604 0.00039041424 0.017825767 0.066194095
0001d0 c2 bd f5 3d 66 ed fa 3d 99 85 ad 3d 4f 09 d6 3d
       0.11999084 0.122523114 0.08472747 0.10450994
0001e0 e8 8e 77 3d ef 0d 05 3e e4 88 f4 3c c1 d8 50 3c
       0.06043902 0.12993596 0.02985043 0.012746991
0001f0 71 2f 37 bc 79 3e 03 bd 4a 9f 45 3d 82 c5 39 3d
       -0.0111807445 -0.032042 0.048247613 0.045354374
000200 c7 ae 13 3c 21 e9 ac bd 7d af b4 bd ca e2 a0 bc
       0.009013838 -0.08442903 -0.08822534 -0.019639391
000210 9f 73 08 3e 3f 47 24 3e d5 1e 0f 3e b3 05 19 3e
       0.13325356 0.16042803 0.13976605 0.1494358
000220 f1 b6 5c 3e af f0 4b 3e 14 16 4f 3e 9d 2b 38 3e
       0.21554162 0.19916032 0.20223266 0.17985387
000230 43 ef 01 3d e4 17 4c bd 5a 4d 3f bd a3 39 d8 bd
       0.03172232 -0.04982747 -0.046704628 -0.10557868
000240 96 01 e4 bb 71 ee 4b bd e8 8f 10 3c 70 23 80 bd
       -0.006958197 -0.049787942 0.008823372 -0.06256759
000250 74 96 41 bd 6c ed 8a 3c ee e8 9d 3d 3a 38 a7 3d
       -0.047262624 0.016958915 0.077104434 0.08165021
000260 22 b2 d9 3d b7 18 d6 bc 92 4d b7 bd c4 9f 11 be
       0.10629679 -0.026134832 -0.08950342 -0.14221102
000270 25 25 39 3d 49 a5 98 bc c1 38 2c bd 3f c4 9e bc
       0.04520144 -0.018633502 -0.042046312 -0.019380687
000280 ef d4 b3 bc 22 21 47 3c f1 87 b0 3d f1 fc c3 3c
       -0.02195212 0.012153896 0.08619679 0.023924323
000290 db 29 8d bd a4 2b 1f be db 86 29 be 45 8b b5 bd
       -0.06892749 -0.15543991 -0.1655535 -0.08864454
0002a0 04 ba 79 bc 9d 3d c7 3c b9 62 18 3d 7a e5 2a 3d
       -0.0152421035 0.024321372 0.037203524 0.041722752
0002b0 ef 1d 3d 3d 20 27 57 3c c7 6a 63 bd 2d 97 0b bd
       0.046171125 0.013131887 -0.055521753 -0.03407972
0002c0 ed 80 90 bd b3 6a d6 bd 0a 3d 36 be 4e d8 17 be
       -0.07055841 -0.1046957 -0.17796722 -0.14828607
0002d0 6d 38 71 3d 08 74 18 3e e9 37 92 3d 37 6e 2c 3d
       0.058891702 0.14888012 0.0713957 0.042097297
0002e0 64 8d 63 bc 01 26 ca bd e3 eb 75 bd 3e b0 4c 3d
       -0.013888691 -0.0987053 -0.060039412 0.049972765
0002f0 52 0e 0b 3d 7c 26 3e 3d 3a 93 27 bd a5 3a de bd
       0.033949204 0.04642342 -0.04091189 -0.10851029
000300 1c d9 2d 3d ec 8e ce 3c a8 36 0b bd 62 19 7d bd
       0.04244338 0.025214635 -0.03398767 -0.061791785
000310 e0 1d 29 bd 65 a6 8b bd 42 17 6a 3d e6 cc 46 3c
       -0.041288257 -0.068188466 0.057151087 0.0121338125
000320 3f 33 2b 3d 3b 4f 32 bd 72 45 ad bd f8 4d 32 bd
       0.04179692 -0.04353259 -0.08460511 -0.043531388
000330 dc 5a 4d bc d4 85 ab bd 09 db 9d bd 43 5d 38 bd
       -0.01253387 -0.08375135 -0.07707793 -0.045010816
000340 d8 25 92 bd 3b 36 1a bd b5 59 21 bd 29 90 df 3a
       -0.07136124 -0.037649374 -0.039392192 0.0017056513
000350 ab 12 0c be e5 91 f2 bd d9 39 fe bd 7f 4f ae bd
       -0.13678996 -0.118442334 -0.12413377 -0.085112564
000360 4f aa 28 3d 90 25 94 3d 8a 16 a2 3d f1 ca 03 3e
       0.041178044 0.07233727 0.07914455 0.12870385
000370 60 66 0a 3e 9d 3a d1 3d ed 91 2b 3d d1 c2 5c bc
       0.13515615 0.10216258 0.041887213 -0.013474182
000380 bf c8 f6 bc 12 2f 7c bd 75 95 92 bd c8 01 09 bc
       -0.03012502 -0.061568327 -0.07157413 -0.008362241
000390 23 82 10 be 3e cf cb bd b6 6a b0 3c 25 57 0c 3e
       -0.14112143 -0.09951638 0.021535259 0.13705118
0003a0 0a 6e db 3d 3e 15 6a 3d 5c 3f 30 bc 34 66 bf bd
       0.10714348 0.057149164 -0.010757294 -0.093456656
0003b0 9a f3 21 be e4 71 c6 bd 8d 22 a2 bd 17 e7 a4 bd
       -0.15815583 -0.09689692 -0.07916746 -0.080518894
0003c0 38 9c b6 bd 44 5e 37 bd af 4f c4 3c d3 03 91 3d
       -0.08916515 -0.044767633 0.023963777 0.070808075
0003d0 f1 66 9d 3d 0c c3 8b 3c 6a f7 02 bd 75 fc fe bc
       0.0768565 0.017060779 -0.031974234 -0.03112624
0003e0 26 bc f3 bb a2 42 59 bd 78 1b 7c bd ba 7f 4a bd
       -0.0074382005 -0.05304206 -0.061549634 -0.049438216
0003f0 e5 ad 31 3d b0 5f c4 3d 2f 10 f8 3d e3 b1 80 3d
       0.04337873 0.095885634 0.12112462 0.06283929

conv1.0.bias f4 [24]
000000 63 78 0d bc 95 c1 3b 3d e4 74 1d bb 95 81 90 bb
       -0.008634659 0.04583891 -0.002402597 -0.0044099786
000010 5b 7e 45 bd a8 54 fe ba bf 88 9a 3c e7 ed f1 bc
       -0.048216205 -0.0019403892 0.018864034 -0.029532386
000020 6f 7f 75 bc 44 84 ad 3b 14 6f 93 3c a5 1f 2a 3d
       -0.014983996 0.0052953083 0.017997302 0.041534085
000030 e4 cc 1e 3d 1e c9 b2 3c 97 91 41 3d 83 ad b6 bc
       0.038769618 0.021824416 0.047257986 -0.022299534
000040 61 99 8a 3b 0c fa 67 bc 85 02 ba bc cf 49 ab 3b
       0.00422971 -0.014158737 -0.02270628 0.0052273045
000050 c0 6a 23 3d 55 fb f7 3b 55 2f ad bc 9b 20 ae bc
       0.039896727 0.007567803 -0.021140734 -0.021255782

conv1.1.weight f4 [24]
000000 55 90 86 3f 80 b5 92 3f 4d e0 7a 3f 97 ca 88 3f
       1.0512797 1.146164 0.97998506 1.0686826
000010 00 17 73 3f 68 a5 9b 3f 51 25 81 3f 7b 26 7f 3f
       0.9495697 1.2159853 1.0089513 0.9966809
000020 84 1a 61 3f 99 72 6d 3f 7f 74 84 3f a8 4e 8a 3f
       0.87931085 0.9275299 1.0348052 1.0805254
000030 79 1b 6d 3f 61 d6 82 3f 7c 3d 8a 3f 28 e8 67 3f
       0.92620045 1.0221673 1.0800014 0.9058862
000040 a7 72 69 3f 9e e7 83 3f a3 d7 71 3f 4c 8c 86 3f
       0.9119057 1.0305059 0.9446966 1.0511565
000050 0d 4e 80 3f 97 ed 6d 3f f2 63 85 3f 89 f2 7a 3f
       1.0023819 0.9294066 1.0421126 0.9802633

conv1.1.bias f4 [24]
000000 31 01 4b 3d 2c e1 09 bc ec 3f 07 be 43 e7 26 bd
       0.049561683 -0.008415502 -0.13207978 -0.040747892
000010 1c 70 85 bd 25 b7 00 be 97 40 09 be c1 f0 0b be
       -0.06515524 -0.12569864 -0.13403545 -0.13666059
000020 91 2d c6 bc c7 dd 32 bd df f7 b2 bc e2 8e a2 3d
       -0.02419165 -0.043668535 -0.02184671 0.07937409
000030 ae 47 1c 3d 6b 27 81 bd b9 10 33 bd 19 c0 01 bd
       0.038154297 -0.063063465 -0.04371712 -0.03167734
000040 2b db ea bd ff d2 19 be c4 8f 5f be 3e 23 0a 3d
       -0.11467584 -0.15021895 -0.21832186 0.033725016
000050 21 28 31 bd 79 05 4b bd 83 64 63 3c 4a cb a7 bd
       -0.04325116 -0.049565766 0.013878944 -0.08193071

conv1.1.running_mean f4 [24]
000000 2e 7f c4 bf a8 94 82 c0 c3 b4 ba c0 1b a2 3e c0
       -1.5351312 -4.0806465 -5.8345656 -2.9786441
000010 9d 5f 3e c1 3c c0 8f c0 c7 15 aa c0 29 31 60 c0
       -11.898343 -4.492216 -5.3151584 -3.5030005
000020 68 3d 23 c0 b6 7e a3 c0 1f d3 36 c0 6e 24 9f c0
       -2.550623 -5.1092176 -2.8566358 -4.973197
000030 ed 6c 2d c0 48 42 a2 c0 3a 8a 99 c0 60 4d 8b c0
       -2.7097733 -5.070591 -4.7981234 -4.353195
000040 90 67 fe c0 9c 34 9f c0 e9 8f 03 c0 5b 2c b4 c0
       -7.950142 -4.975172 -2.0556586 -5.6304145
000050 fc af 89 c0 34 a3 a1 c0 6b 18 7f c0 40 7f 92 c0
       -4.3027325 -5.0511723 -3.9858654 -4.5780334

conv1.1.running_var f4 [24]
000000 fd 7f 27 43 84 61 36 43 f1 f0 cd 43 98 6f 39 43
       167.49995 182.38092 411.88235 185.43591
000010 a7 e6 50 44 a1 22 81 43 76 43 86 43 8e 74 60 43
       835.60394 258.27054 268.52704 224.45529
000020 88 75 4d 43 2e e8 82 43 b8 fb 58 43 04 84 75 43
       205.4591 261.8139 216.98328 245.51569
000030 12 4d 5b 43 53 d6 8f 43 e0 4c a2 43 e5 3f 8b 43
       219.30106 287.6744 324.6006 278.49918
000040 18 86 eb 43 d1 a2 7e 43 19 bd 2d 43 12 62 82 43
       471.0476 254.636 173.73866 260.76617
000050 9a cf 8a 43 3e 8b 80 43 bf 7d 5b 43 6c aa 5c 43
       277.6219 257.08783 219.4912 220.66571

conv2.0.weight f4 [48, 24, 8, 8]
000000 66 37 c2 bc da 98 26 bc bd ce f6 bc d5 9e e0 bd
       -0.023708057 -0.010168279 -0.030127877 -0.10967795
000010 ee 68 e1 bd b2 ab 00 be 80 f8 da bd f3 1c bd bd
       -0.11006342 -0.12565497 -0.10691929 -0.09234037
000020 bf 95 28 3d af 77 2d 3c e9 05 79 3d fa 1b b6 bd
       0.041158434 0.010587617 0.060796652 -0.08892055
000030 ee a9 f8 bd 58 48 d2 bb a8 26 84 3d 85 4f a1 3d
       -0.121417865 -0.0064173155 0.064526856 0.07876495
000040 fd 07 79 bd e5 11 b7 bd 67 9a 0f bc 31 4f 37 3c
       -0.060798634 -0.0893896 -0.00876484 0.011188314
000050 1e 90 d1 bc 56 07 07 3d b5 aa d7 3c 60 c4 8c 3d
       -0.025581416 0.03296598 0.026326517 0.06873393
000060 51 34 65 3d 8d 38 1c 3d 8b b0 03 bd 77 cb 1b bc
       0.055958096 0.03813987 -0.032150786 -0.009508959
000070 4b 22 55 bc 25 41 64 bd 36 e6 e1 bb a9 a6 76 3d
       -0.013008664 -0.05572619 -0.0068938984 0.060217533
000080 70 d8 fb bc 93 23 d0 bd 71 96 c3 bd 56 bd b5 3b
       -0.030742854 -0.10163035 -0.09550179 0.0055462522
000090 a5 43 06 3d 86 c9 45 3d dc b1 b8 bb 53 92 10 3a
       0.032779355 0.04828789 -0.005636437 0.0005514968
0000a0 7c b8 f0 bc 5f 0e b5 3c e5 ec a0 bc a4 1f be 3d
       -0.029384844 0.02210158 -0.01964421 0.09283379
0000b0 88 c1 de 3d 3b 9d aa 3d 70 ae ab 3c 89 7f 47 3d
       0.10876757 0.083307706 0.020957202 0.04870561
0000c0 b1 d0 97 bd 98 d6 b0 bd e8 46 65 bd 3b 0e 7c bd
       -0.074128516 -0.086346805 -0.055975825 -0.06153701
0000d0 37 6c bb bd 4b 43 c4 bd 75 90 e3 bd c9 0b 8e 3c
       -0.091515 -0.095831476 -0.11111537 0.017339604
0000e0 f0 35 fe bd 95 98 de bd d5 d0 20 be 60 fa 00 be
       -0.124126315 -0.108689465 -0.15704663 -0.1259551
0000f0 b5 a2 0f be e8 76 1c be bc 39 df bd b8 60 aa 3c
       -0.14026912 -0.15279734 -0.10899684 0.020798072
000100 ba 2b 65 3d 50 db 53 3c c4 22 02 3d d0 a1 7b 3c
       0.055949904 0.012930706 0.031771436 0.015358403
000110 9d 6b 3a 3d 15 1b d5 3d 73 c7 6c 3d 34 c3 0a 3b
       0.045512784 0.10405556 0.057807397 0.002117348
000120 c8 fa 54 3d 28 09 7c 3d 68 e4 6e bc 04 07 3d bc
       0.051996976 0.06153217 -0.0145808235 -0.011537317
000130 b2 2a 0c 3d 6d 72 ce 3c b9 5f 10 3d 83 c6 70 bd
       0.034220405 0.025201047 0.03524754 -0.058783066
000140 7c 77 f5 bc 46 da 28 bd ec fe 99 bd 4b 80 81 bd
       -0.029964201 -0.041223787 -0.075193256 -0.06323298
000150 bb 71 09 3d 78 5e 02 bd 39 5d ee bd 88 55 fd bc
       0.033555727 -0.031828374 -0.116388746 -0.030924574
000160 73 c4 ae bd 63 a7 11 bd 70 ee 93 3b 50 88 68 3c
       -0.085335635 -0.035560023 0.004514508 0.014192656
000170 72 56 9f 3d 42 e9 30 3d ff 6e 4b bd f6 51 32 bd
       0.0778016 0.043191202 -0.0496664 -0.043535195
000180 0c 09 43 bb 23 4c 75 bc a0 96 d6 3b 9a 4c c6 3c
       -0.002976003 -0.014971766 0.0065487176 0.024206448
000190 46 6d 96 bc ce 4b 96 bd bf 6e 78 bd 87 19 2f bd
       -0.018362653 -0.07338677 -0.06065249 -0.042748954
0001a0 8e e2 fd 3c 4f a4 67 3d bb 44 db 3d 49 50 47 3d
       0.030991819 0.05655318 0.10706469 0.04866055
0001b0 ad d1 4b bd 89 b6 52 bd c0 e0 d7 bd bb da 0e be
       -0.04976051 -0.05144361 -0.105409145 -0.13950627
0001c0 39 a9 41 3d bd cd 01 3c 23 51 17 3d 78 d4 7a bc
       0.047280524 0.007922587 0.036942612 -0.015309446
0001d0 26 be 19 bc 8f d0 13 3d 69 61 df 3d 41 55 1c 3b
       -0.009383714 0.03608757 0.109072514 0.0023854526
0001e0 48 5d 6b 3d 1d aa 6f 3d a4 9b 55 3d db 9a b3 3d
       0.057462007 0.058511842 0.052150384 0.08769771
0001f0 d6 48 34 3e 29 e5 37 3e 77 77 b9 3d 74 ca a5 3d
       0.1760591 0.17958511 0.09055989 0.080952555
000200 73 ad 15 bd 65 4c 0c bd 05 c6 59 bb b6 d7 60 3c
       -0.036542367 -0.034252543 -0.00332296 0.0137233045
000210 94 ca 5f 3d 67 6c be 3c eb 04 77 3d d1 83 f0 3c
       0.054636553 0.02324505 0.060307425 0.02935973
000220 6a b2 3d 3b 66 80 19 bd 64 70 e5 bc 63 50 96 bd
       0.0028945454 -0.037475966 -0.028007694 -0.07339551
000230 5a e4 1c bd 4e 39 58 3c f6 66 1e 3d 4d 2a 83 bd
       -0.03830371 0.013197256 0.03867241 -0.064045526
000240 ed ae 05 bd 91 ee 5f bd 22 67 86 bd 98 e0 ca bd
       -0.032637525 -0.054670874 -0.0656264 -0.09906119
000250 cf b9 92 bd 7f c6 86 bd 1a 51 e0 3b a3 0b 98 3c
       -0.071643464 -0.06580829 0.0068456056 0.018560236
000260 50 8e 4b bc a7 96 b7 bd fd 9d 9a bd b8 e5 f5 bc
       -0.012424067 -0.089642815 -0.07549665 -0.030016765
000270 e2 ee 36 3c 9e ea 22 bd 79 0e c9 bd df 71 8f bd
       0.011165353 -0.03977453 -0.098172136 -0.07004141
000280 5b 3b 02 bd 45 25 45 bd fb 00 05 bd d8 3e 0f bd
       -0.031794887 -0.048131246 -0.03247164 -0.03497204
000290 3c 80 91 bd 02 11 c8 bd 25 58 cd bd 77 59 88 bd
       -0.07104537 -0.09768869 -0.10026578 -0.06657689
0002a0 2c 31 94 bd 21 70 d0 bc 82 03 48 3c 37 17 af bc
       -0.07235941 -0.025444092 0.012207868 -0.021373374
0002b0 45 4a 75 bd ae 1a 28 bd 49 44 97 bd 5d 07 52 bd
       -0.059885282 -0.04104107 -0.07386071 -0.051276553
0002c0 e9 f3 8d bc 86 3a d4 bb ef 6e e3 3c ed 21 38 bd
       -0.01732822 -0.006476703 0.027762858 -0.04495423
0002d0 25 fe cf bd 63 10 05 bd a6 4b ee bc a5 e8 71 bd
       -0.10155896 -0.03248633 -0.029088806 -0.059059758
0002e0 1d 84 b0 bc d3 52 19 3d c9 01 3f 3d 95 fb c0 bc
       -0.021547372 0.037432503 0.04663256 -0.023557464
0002f0 1d 01 f6 bc 65 06 4b bc a0 0e c3 bc 06 95 f2 bc
       -0.030029828 -0.012391661 -0.023810685 -0.029612076
000300 15 af a6 3c d7 2a 8f bd 32 67 81 38 fc fb a3 bc
       0.020347157 -0.06990593 6.170421e-05 -0.020017616
000310 5f cb 2a bd e6 bd 13 3d c8 a3 87 3d 8b 5c 7e 3c
       -0.041697856 0.036069773 0.06623036 0.015524994
000320 d6 8d 08 3e b3 ac 88 3c 43 85 d1 bc a0 2b 27 be
       0.13335356 0.016683912 -0.02557624 -0.16325235
000330 e4 08 e2 bd 46 31 9c bd 0b 61 9f bc 1d 6f 88 bc
       -0.11036852 -0.07626586 -0.019455453 -0.016654545
000340 23 0d ec bd 89 f0 d2 bb d4 15 42 3d 77 c0 05 3d
       -0.11525943 -0.0064373654 0.0473841 0.032654252
000350 08 67 1a bb ea 17 15 bd d6 d7 7f 3b cc 46 f2 bc
       -0.0023559947 -0.03639976 0.003903856 -0.029574774
000360 3c f5 c7 bc 4b 5a fb 3b 0f da 23 3d da 60 a0 bb
       -0.024408929 0.007670676 0.04000288 -0.004894358
000370 57 48 06 3d 62 79 6f 3d 85 0e 00 3e f3 64 08 3e
       0.032783832 0.05846537 0.12505539 0.13319759
000380 91 dc 98 bc 2d 60 db 38 c1 e9 a0 3c 35 0c 4a 3a
       -0.018659862 0.00010460648 0.019642713 0.00077075075
000390 69 d0 28 3d 98 ab e5 bc 0b dd ec 3b 0f 0d a3 3d
       0.04121438 -0.028035924 0.007228499 0.07961475
0003a0 f7 ed 6c 3d 0f df 56 3d 37 ea c3 3c cb 28 4f bc
       0.05784413 0.05245882 0.023915393 -0.012644003
0003b0 a9 b1 16 be 5a d4 8d bc 41 99 57 bd f6 3a 7f bd
       -0.1471621 -0.017313171 -0.05263639 -0.06231209
0003c0 da 5c 4c 3d 7f 55 05 3d 7e 48 08 3c 06 d4 78 bd
       0.049893238 0.03255224 0.008318065 -0.060749076
0003d0 f0 a9 f3 bc 7b 54 ac 3d fb 08 07 ba 15 d7 84 bd
       -0.029744118 0.08414551 -0.00051511795 -0.06486336
0003e0 b6 07 5d bd 07 03 ab bd 90 64 83 bd 13 38 d7 bd
       -0.05396243 -0.08350187 -0.06415665 -0.10508742
0003f0 7f f0 fb bc e1 80 76 3d a3 59 09 3d b0 5a 87 bb
       -0.030754326 0.060181502 0.03353275 -0.004130684

conv2.0.bias f4 [48]
000000 ca c1 86 ba 70 60 b5 3b 4a 60 84 bc 2c fb 5a 3c
       -0.0010281142 0.005535178 -0.016159195 0.013365548
000010 f4 d2 8a bc f5 82 e2 3b 79 80 c5 3b bd 63 b5 3c
       -0.016946293 0.006912584 0.006027278 0.022142285
000020 45 01 11 bc 9f 46 8d 3c 68 9e 8c bc c6 75 76 3b
       -0.0088504 0.017245589 -0.017165378 0.003760682
000030 4a eb 4a 3a 57 4b 65 3c e8 e9 65 3b 13 24 8d 3c
       0.0007740749 0.013995013 0.0035082046 0.017229116
000040 bd 46 7e 3c 01 54 bd 3b 86 a5 ee ba 7e 6d 7e 3c
       0.015519795 0.0057778363 -0.0018207289 0.015529035
000050 98 0c 73 3c 0d 52 c1 bb 01 ca 8e 3c 53 a9 9c bb
       0.014834546 -0.005899674 0.017430307 -0.004780927
000060 00 a8 8f 3c 04 72 8f 3c 68 6f 65 ba cc cd 8b bc
       0.017536163 0.017510422 -0.00087522576 -0.017065905
000070 e2 32 07 bc 14 f8 83 bb 98 c3 41 bc 91 b4 00 bb
       -0.0082518775 -0.004027376 -0.011826418 -0.0019638876
000080 85 1d 1c bc 31 e0 c4 bb 2a 4d bd bb 34 7a bc ba
       -0.009528522 -0.006008171 -0.005777021 -0.0014379681
000090 71 82 fe bb c6 71 83 3a a5 f4 8f bc 74 1b a2 3c
       -0.0077670147 0.0010028414 -0.01757271 0.019788481
0000a0 df b8 4f 3c 39 79 ad bc 4e 5f a4 bc 33 9f b6 bc
       0.012678354 -0.021175968 -0.020064976 -0.022292709
0000b0 b5 a0 8e bb 5a 70 ea 3b 2c 16 6f bc f5 c9 c2 bc
       -0.004352654 0.0071545066 -0.0145926885 -0.023777941

conv2.1.weight f4 [48]
000000 dd 17 80 3f 23 cb 77 3f 49 95 70 3f 79 4f 65 3f
       1.0007282 0.9679434 0.9397779 0.8957439
000010 ef 7b 85 3f 8f 66 88 3f b2 d3 2a 3f 9a b7 8c 3f
       1.0428447 1.0656298 0.6672927 1.0993531
000020 a6 35 83 3f 84 a8 75 3f 0d 51 65 3f b1 71 8d 3f
       1.0250747 0.9596026 0.895768 1.1050321
000030 fd 27 7d 3f c4 ff 6f 3f 1c 56 86 3f 60 9e 50 3f
       0.9888914 0.9374964 1.0495028 0.8149166
000040 15 ba 64 3f f3 3f 6f 3f a6 54 86 3f c2 42 2e 3f
       0.8934644 0.93456954 1.0494583 0.68070614
000050 fb dd 82 3f 58 9c 84 3f 7a 64 81 3f 5c f6 a2 3f
       1.0223993 1.0360212 1.0108788 1.2731433
000060 5d d5 6f 3f 01 0b 95 3f 54 1f 81 3f 6f 8a 83 3f
       0.9368494 1.1643983 1.0087686 1.0276622
000070 c7 61 8b 3f db 1b 89 3f ee 77 8f 3f 19 f6 4a 3f
       1.0889214 1.0711626 1.1208475 0.79281765
000080 7d b3 70 3f 66 2b 87 3f 6f e9 69 3f 6d f1 57 3f
       0.9402388 1.0560119 0.91371816 0.8435276
000090 57 4b 82 3f 2e 5b 85 3f bc 06 3f 3f 6c 21 85 3f
       1.0179242 1.0418451 0.7461965 1.0400825
0000a0 67 9a 87 3f fe 9d 86 3f a8 b3 67 3f bb 79 7b 3f
       1.0593995 1.0516965 0.9050851 0.9823262
0000b0 5e 64 72 3f 7b 61 8c 3f b8 47 8b 3f ab 88 4e 3f
       0.946844 1.0967249 1.0881262 0.8067729

conv2.1.bias f4 [48]
000000 bb 6c 4a be 3a a8 19 be f7 04 69 be 41 f6 c1 be
       -0.1976804 -0.1500558 -0.227558 -0.3788319
000010 c3 52 e8 bd 2d ac 50 be d6 59 bd be 5c b8 1e be
       -0.113439105 -0.2037818 -0.36982602 -0.15500015
000020 64 4f 34 be bb 4a 5e be 70 88 fe bd 07 05 06 be
       -0.1760841 -0.21708195 -0.12428367 -0.13087855
000030 60 eb 2f be a0 f2 fc bd 55 47 98 bd 54 d8 b5 be
       -0.17179632 -0.123509645 -0.074354805 -0.35516608
000040 1d 48 35 be b3 2d 7f be 64 ea 3a be 76 cd 9b be
       -0.1770329 -0.24919777 -0.18253475 -0.30430192
000050 c8 a6 d9 bd d4 e6 62 be 21 ef e9 bd ba 19 b9 bd
       -0.10627514 -0.22158366 -0.11422563 -0.0903811
000060 a2 60 95 be 2f 22 14 be 46 d1 0b be 90 5f 9b bd
       -0.29175287 -0.14466165 -0.1365405 -0.075865865
000070 36 be cc bd ae 69 b8 bd b9 39 4b bc 5c c7 a5 be
       -0.09997217 -0.09004532 -0.012403899 -0.32378662
000080 2e b1 a8 be 46 a1 76 be b7 b2 6c be 35 b0 da be
       -0.32947677 -0.24084958 -0.2311505 -0.4271256
000090 29 7f b6 be 5a 24 11 be 4a 05 a0 be 9a d5 b6 be
       -0.3564389 -0.14174023 -0.31254035 -0.3570984
0000a0 9e 5e 6e be e8 b0 b6 bd 2f 6e df bd 44 00 44 be
       -0.23278281 -0.08920461 -0.10909688 -0.19140726
0000b0 f6 f0 09 be 0a cc 8d be a8 9d 12 bd 98 97 d3 be
       -0.13470826 -0.27694732 -0.035794884 -0.41326594

conv2.1.running_mean f4 [48]
000000 96 73 cc bf 5a a2 1a be 1d f5 65 bf 90 da 00 c0
       -1.5972774 -0.15100995 -0.8982714 -2.01334
000010 3b 5c 14 c0 50 96 78 bf 66 ec 55 40 d7 d4 44 bf
       -2.3181293 -0.9710436 3.3425536 -0.7688727
000020 fa 7f c3 bf 52 54 2c c0 de 7e ed bf 05 c1 ea bf
       -1.527343 -2.6926465 -1.8554342 -1.8340155
000030 22 a6 15 c0 22 ab ac bf b7 32 7b bf 34 fd ce bf
       -2.338265 -1.3489726 -0.9812426 -1.6171021
000040 9d 44 83 bf 57 7a 4f bf fd 53 85 bf 70 ae 40 40
       -1.0255314 -0.8104605 -1.0416256 3.0106468
000050 15 b3 e3 bf ce 9e e5 bf 51 9f 1e bf ca dd 0e be
       -1.7789026 -1.7939088 -0.6196185 -0.13951793
000060 fe 55 f3 3e e5 46 0a c0 c7 bd f7 3d 82 d8 7e bf
       0.47526544 -2.160577 0.12096744 -0.99549115
000070 5e 2d f3 bf 94 0e 19 bf e2 b2 eb bf 56 ce a6 bf
       -1.899822 -0.5978787 -1.8413966 -1.3031719
000080 2b 29 f1 bf f7 ff 93 bf 12 3f d6 bf a8 92 09 bf
       -1.8840688 -1.1562489 -1.6737998 -0.53739405
000090 3f 77 b0 bf 4d 9b cf bf 27 b5 6f 40 76 7e de bf
       -1.3786391 -1.6219269 3.7454317 -1.7382343
0000a0 6a c3 77 bf 55 c9 ec bf e1 2e 72 bf 7c d2 8d bf
       -0.96782553 -1.8498942 -0.9460278 -1.107986
0000b0 70 be 7e bf 36 95 90 bf cd a6 9f bf e3 bb 78 bf
       -0.99509335 -1.1295536 -1.2472779 -0.9716169

conv2.1.running_var f4 [48]
000000 2a eb cd 40 ce 7c 98 40 cc 58 c5 40 19 45 91 40
       6.4349566 4.765235 6.1670895 4.539685
000010 be 89 16 41 27 9f 89 40 42 cf 71 40 3d d0 55 40
       9.408628 4.300678 3.778275 3.3408349
000020 d9 59 88 40 0a cf e4 40 31 03 32 41 48 ce b3 40
       4.2609677 7.1502733 11.125779 5.618931
000030 c7 b5 d9 40 14 bc 57 40 32 b5 07 41 ea 0b 8f 40
       6.8034396 3.3708544 8.481737 4.4702044
000040 88 b1 f0 40 1e c8 fa 40 1d a4 08 41 79 f8 d7 40
       7.5216713 7.8369284 8.540067 6.749081
000050 bb eb 04 41 e7 11 82 40 1d 95 86 40 5e f1 7d 40
       8.307551 4.0646853 4.2057023 3.967857
000060 21 4b 9b 40 d4 0c d3 40 09 da 80 40 dd ef 81 40
       4.852921 6.595316 4.0266156 4.06053
000070 9d 5e 9e 40 96 05 5f 40 70 5f e0 40 68 4e 81 40
       4.9490495 3.484716 7.01165 4.040821
000080 fb e6 ac 40 1b 54 9d 40 1f ac c9 40 50 b9 9b 40
       5.403196 4.916517 6.302261 4.866371
000090 90 72 8a 40 ec d5 c7 40 1e 25 5a 40 da ff b7 40
       4.3264847 6.2448635 3.4085155 5.749982
0000a0 be 1e cf 40 b3 d5 de 40 f6 1f 9a 40 98 db 61 40
       6.4725027 6.9635863 4.8164015 3.529028
0000b0 e4 1d 50 40 26 ec a3 40 91 77 da 40 49 59 ad 40
       3.2518244 5.1225767 6.8270955 5.417149

conv3.0.weight f4 [96, 48, 4, 4]
000000 9d b7 19 bd ee 57 eb bc c0 43 96 3c df 65 87 3d
       -0.037528623 -0.028728452 0.018342853 0.06611227
000010 31 62 ad 3c 1c 0e 0c bd 99 0b 97 3c 67 c9 48 3d
       0.021164985 -0.034193143 0.018438147 0.049020197
000020 3e 50 87 bd f8 38 83 bd d1 7c ab bd 72 dd ef bc
       -0.06607102 -0.0640735 -0.08373416 -0.029280398
000030 ab e4 a1 3d 53 b6 87 3d 7d 1b 1a 3d cb 75 7a 3d
       0.07904943 0.066265725 0.03762387 0.061147492
000040 21 e0 08 3d 32 7f 5c 3d e6 e1 32 3d a1 1b 93 bc
       0.03341687 0.05383224 0.043672465 -0.01795751
000050 d6 d3 c7 bd 77 82 a5 bc 19 b0 73 bc fb 98 64 3d
       -0.097572014 -0.020203812 -0.014873528 0.055809956
000060 51 14 5a bd 69 8c 73 bd 6f 55 56 3d 1c 90 70 3c
       -0.05324203 -0.059460077 0.05232757 0.014682796
000070 32 c9 9c 3c 7c 05 71 3d 99 e1 2f 3d e5 09 12 bd
       0.019138906 0.05884312 0.042939756 -0.035653967
000080 bd 7c 54 bc d6 29 98 bc 4b 42 55 bd 4f 09 50 3d
       -0.012969193 -0.018574636 -0.052065175 0.050790127
000090 da b7 30 bc 72 4c 0d 3d 75 b2 57 bd da 06 1f 3d
       -0.010786021 0.034496732 -0.052660424 0.038824894
0000a0 c1 6e 88 bd ac 85 31 bb 10 97 eb 3c d5 9c c6 3b
       -0.0666175 -0.0027087731 0.028758556 0.0060611763
0000b0 ca 99 0c 3d d8 54 a5 bb 96 4e f6 bc 5a cd d8 3c
       0.034326352 -0.0050455146 -0.03006677 0.026465107
0000c0 8b d6 c9 bc dd bb 10 be 2e 7d 5b bd e4 b3 dc bb
       -0.024638435 -0.14134164 -0.053586178 -0.006735312
0000d0 b5 86 23 bd bd e3 12 3d 9e 5d 1b ba 7a ec 9b ba
       -0.03992339 0.03586172 -0.0005926731 -0.0011896037
0000e0 10 99 fb bb 1e ad 6c bd ac 90 b4 bd 0f fb 93 bc
       -0.0076781586 -0.057782285 -0.088166565 -0.01806405
0000f0 24 ae 2a 3e 8c d9 27 3d b3 76 22 bd bd fc 83 3d
       0.16667992 0.040978953 -0.03966398 0.064446904
000100 fe 1b 8b bc e0 ac 82 bd 17 be f3 bd 6f e0 48 3d
       -0.016981121 -0.063806295 -0.11901491 0.04904216
000110 1a 1e ae 3b 7b 3a 1e bb 35 98 bc bc 03 b5 fc bc
       0.005313647 -0.0024143744 -0.023021797 -0.030848032
000120 05 5b ab bb d9 e7 5e 3c e1 7a b6 3b 46 89 72 bd
       -0.0052293562 0.0136050815 0.0055688475 -0.059212945
000130 34 b9 45 bc 0a d5 e2 bb 49 53 de 3c 8d 71 0d 3d
       -0.012068082 -0.006922369 0.027139323 0.03453212
000140 9b 04 1d be b2 01 41 be 2a 1e ed bd e7 54 9e bc
       -0.15333788 -0.18848303 -0.11578019 -0.019327594
000150 06 02 f5 bc ee 36 b7 bb 0c 98 f1 3c e5 f4 5a 3d
       -0.029908191 -0.005591265 0.029491447 0.053456206
000160 68 01 02 bd 80 d7 a5 3c 0d 2f ce 3c 3d e3 87 3d
       -0.031739622 0.02024436 0.02516892 0.06635139
000170 c6 91 2c 3e fe d2 da 3d 84 ab 5a 3b 0f cf 25 3d
       0.16852483 0.10684775 0.0033366391 0.04048067
000180 85 bb d8 bd 52 51 d7 bd 6e 63 30 bd a1 d2 93 bc
       -0.105826415 -0.105135575 -0.043063574 -0.018044772
000190 fa 50 1f 3d 43 b1 ed 3c c7 07 3d 3d 56 86 a2 bc
       0.038895585 0.029015189 0.046149995 -0.019839447
0001a0 31 b2 8f 3b b4 7a 92 bd 19 82 ab bd 37 d8 9f bd
       0.0043852557 -0.0715231 -0.083744235 -0.078049116
0001b0 1b 03 a5 3c e1 8f 61 bc ab 77 4a bd f1 6e 49 bc
       0.020143082 -0.013767214 -0.04943053 -0.012294517
0001c0 f5 3a 70 3d 6e 06 03 bc 62 40 9b bd a4 ec 64 bd
       0.058649976 -0.007997138 -0.075806394 -0.05588974
0001d0 b1 a8 42 3d e8 7f 46 3e d4 84 e8 3d 8c 0c f2 3d
       0.047524158 0.1938473 0.1135346 0.118187994
0001e0 4d 2d 77 bc 9d af 5a 3d 44 72 19 bc d6 e3 3e 3d
       -0.015086484 0.053390134 -0.009365622 0.046604
0001f0 b1 18 92 bc 12 a5 dd bc ec 19 84 bd 11 03 42 bd
       -0.01783404 -0.02705625 -0.06450257 -0.047366206
000200 cb 9b 6b be 8d 9d 3b be 88 0c e3 bd d0 0e 00 be
       -0.23008649 -0.1832182 -0.110863745 -0.1250565
000210 97 dc dd 3b 7c ed f9 3d 79 7d a7 3d 8c 66 05 bd
       0.006770681 0.122035 0.08178229 -0.0325685
000220 4c 1e 0f bb 2e cd e0 3d 91 16 a2 3d 7f 25 06 3e
       -0.0021838127 0.10976635 0.079144605 0.13100241
000230 f5 bb 90 bd 97 cd 28 bc f0 cc 40 bd ef bd 3c bc
       -0.070671 -0.010302923 -0.047070444 -0.011519893
000240 73 aa 9f bd e5 4d 10 be c8 7f 41 be 92 ee 2a be
       -0.077961825 -0.14092214 -0.18896401 -0.1669257
000250 de da b1 3d 70 16 eb 3d 17 a6 bc 3c ed ef a4 3c
       0.08684324 0.11478889 0.023028417 0.020133937
000260 b6 14 42 3e 44 1d 37 3d 6b 83 c2 bb fb e3 77 3d
       0.18953213 0.044705644 -0.0059360764 0.060520153
000270 9b cd 36 3d b3 da 68 bc 87 0b b1 bd c2 7b 15 be
       0.044629674 -0.014212298 -0.08644777 -0.14597991
000280 fa 93 83 bd 95 3b 4a bd 35 f3 75 bd 6f b7 6d 3d
       -0.06424709 -0.049373228 -0.060046393 0.058036264
000290 c5 3b c5 bb bc d9 c4 3c 0a 1e ff 3b de af a1 3d
       -0.006019088 0.024029605 0.0077855634 0.07894872
0002a0 10 b9 72 3d 2c a0 bf 3d e3 3f 45 3d 62 8f e5 3c
       0.05925852 0.09356722 0.04815663 0.028022472
0002b0 db 00 9b bd 8b ae b5 bd a4 9c d1 bd 45 e6 88 bd
       -0.075685225 -0.08871182 -0.10234955 -0.066845454
0002c0 04 18 c0 bb 16 9c 13 bc 16 ac 18 bd 6c 94 83 3c
       -0.005862238 -0.009009382 -0.03727349 0.016061984
0002d0 02 f6 c5 bc 34 d0 7c 3d 21 e5 b6 3c 3c b5 05 bd
       -0.024165157 0.061721995 0.022326054 -0.03264354
0002e0 7b 96 6d bc fd 31 2a bd 86 11 c8 bd 36 92 7b 3c
       -0.014501209 -0.04155158 -0.09768967 0.015354684
0002f0 d8 2a f3 3d c5 9f f0 3d 10 83 98 3d a2 4b 78 3d
       0.11873406 0.117492236 0.07446873 0.060619004
000300 52 34 2f 3d ed 9d 67 3d 68 5e b1 3b 29 e8 45 3c
       0.042774506 0.056547094 0.0054128654 0.012079277
000310 5d 5c 9d bc 3b 15 16 3c b3 a5 16 bd cd 59 fb 3b
       -0.019209081 0.009160335 -0.036779117 0.007670617
000320 5e ca 86 3d df fc 5b 3d c8 86 56 bc 75 eb 9b 3b
       0.06581567 0.053707954 -0.013093658 0.0047582933
000330 6e ed 71 3d 42 3c 71 bd 91 c1 72 bd 14 ce 4a bd
       0.05906432 -0.058895357 -0.05926663 -0.049512938
000340 85 a1 63 3d 63 42 6e 3d 11 bc cc 3b 55 4c 9d 3c
       0.05557396 0.05816878 0.006248005 0.019201437
000350 86 e7 7f bc 54 4c 9a bc 78 c0 ac bd 27 6d da bd
       -0.015619164 -0.018835224 -0.08435148 -0.106653504
000360 de 02 82 bd c9 9f 01 bd 03 5f c1 3c 8c f1 cf 3d
       -0.06348203 -0.031646524 0.023604875 0.10153493
000370 8c 6e 74 bd 6c 4f 3b bc 2e bc 8c 3d 89 fc 81 3d
       -0.05967574 -0.01143251 0.0687183 0.063469954
000380 89 f3 2c 3e 9a 9b 71 3d 44 05 ff bd 81 d5 31 bd
       0.16889776 0.058986284 -0.12452176 -0.043416504
000390 cb e4 be bd c0 ed 54 be c2 3e 71 be 42 e5 fc bd
       -0.093209825 -0.2079382 -0.23559096 -0.12348415
0003a0 d7 ad 43 3e 1c 1d f8 3d 26 84 85 3d 95 da 50 3c
       0.19109283 0.12114927 0.06519346 0.0127474265
0003b0 72 2d b4 3c 41 a1 6e bd 2a b7 ba bd f8 ea d6 bd
       0.021994326 -0.058259252 -0.09116967 -0.104940355
0003c0 3f ef af 3b b6 b0 a7 3c d4 ff bc bb 14 a4 3a 3d
       0.0053690965 0.020470005 -0.005767802 0.045566633
0003d0 14 ec 48 bd be 96 ca bd 99 3d fd bd c4 00 63 3c
       -0.049053267 -0.09892033 -0.123652644 0.013855163
0003e0 32 c8 c1 ba 53 64 89 bb 4f d8 96 bc af 8d cd 3d
       -0.0014784394 -0.004192868 -0.01841369 0.100367896
0003f0 99 21 c4 3c a4 d6 02 bd 91 19 22 3d 78 df 5d 3d
       0.023941802 -0.03194298 0.039575163 0.054168195

conv3.0.bias f4 [96]
000000 61 18 30 ba 97 46 e6 3c ab 7f c2 3a 05 ca fe 3b
       -0.00067175 0.028109832 0.0014839073 0.0077755474
000010 94 81 89 bc 79 8c e7 bc a0 ea f8 bc 80 33 07 bc
       -0.01678542 -0.028265225 -0.030385315 -0.008252025
000020 6b d0 03 3d 93 95 04 3d d5 8f 41 bc 02 aa ec 3c
       0.032181185 0.032369208 -0.011814077 0.02888966
000030 63 48 65 3c 49 10 f4 bc 60 1a ae 3b fe e5 ca 3b
       0.013994309 -0.029792922 0.0053132027 0.006191968
000040 85 de 13 3c 27 05 0e bc 98 27 d0 3c 9c 20 22 3c
       0.009025221 -0.008668221 0.025409505 0.00989547
000050 22 c6 01 3d 39 f8 02 3d 88 ee f5 bc 78 46 36 3c
       0.031683095 0.031975005 -0.030020967 0.0111251995
000060 14 e1 f4 3c 7c 99 b0 bc 4e cb 49 3a e4 18 be bb
       0.029892482 -0.021557562 0.0007697836 -0.005801307
000070 f3 bc c3 bb d3 bc 84 3c ae 65 c7 3c e5 d6 9d 3c
       -0.0059734522 0.01620332 0.024340477 0.019267509
000080 94 f3 ae 3c 0e 17 4e 3b c0 08 f9 3c 11 b4 91 bb
       0.021356381 0.0031446847 0.03039968 -0.0044465144
000090 3c 88 8f 3c 4f fa 39 bc 1f 91 df bc ec f2 85 bc
       0.017521016 -0.011351182 -0.027290879 -0.016351186
0000a0 3f eb d1 bc 45 4a 3e bc ae 19 2c 3c 50 94 c7 3b
       -0.02562487 -0.011614387 0.010504169 0.0060906783
0000b0 16 f4 79 3c 66 52 dd bb 1b 3c 12 bc fb 7c e8 bc
       0.0152559485 -0.0067542074 -0.008925463 -0.028379908
0000c0 7c d9 5f bc 8a 98 a8 bb 56 a9 cd bc be 43 32 bc
       -0.013662692 -0.005145137 -0.02510516 -0.010880409
0000d0 ba 0e 0f 3d 16 51 ce b9 06 26 96 3c bb 89 36 bb
       0.034926154 -0.00039351796 0.018328678 -0.002785309
0000e0 b0 5b f1 3b e5 3a 0e 3d 82 61 d9 3c 68 29 07 bd
       0.0073656663 0.034724135 0.026535753 -0.032998472
0000f0 c8 1d 27 3c e4 4f 67 3c b0 fd 20 bc b2 36 e5 3a
       0.0101999715 0.0141181685 -0.009826109 0.0017487614
000100 2d f0 0a 3d 6e 06 b6 bb 12 6f 59 bc 3d 75 9f 3c
       0.033920456 -0.0055549657 -0.01327111 0.019465083
000110 2a 2d cb bb 91 bd bc 3c bc 11 48 3c 45 19 68 3c
       -0.0062004523 0.023039611 0.012211259 0.014166181
000120 66 10 91 3c 6e a4 8c bc 5d d5 ad bc 87 00 ca 3a
       0.017708015 -0.01716825 -0.021219904 0.0015411534
000130 85 f9 b8 bb 72 b8 d1 bb ba 7a 6a 3c 0a 81 93 bc
       -0.0056449794 -0.0064001614 0.014311487 -0.018005867
000140 a3 ff ec 3b 3a 6a ef bc 14 71 c6 bc 38 98 b3 3c
       0.0072326227 -0.029225457 -0.024223842 0.02192317
000150 81 69 ef 3c 69 08 ed bc 1b 79 2a 3c c3 66 0c b7
       0.029225113 -0.028934674 0.01040485 -8.368576e-06
000160 bb c4 9f bb 89 79 07 3d 8a 31 ee bc 4f ba 12 3d
       -0.004875747 0.03307489 -0.029076356 0.03582221
000170 21 7a ec ba ce c0 ad bc 28 14 01 bd 34 2e aa bc
       -0.0018041768 -0.0212101 -0.031513363 -0.020773984

conv3.1.weight f4 [96]
000000 61 bf 7a 3f 75 16 45 3f cd 80 60 3f 7a 3c 3c 3f
       0.9794827 0.7698739 0.87696534 0.7352978
000010 b1 74 6d 3f c5 c5 63 3f 57 fe 5e 3f 37 b1 5d 3f
       0.9275618 0.8897365 0.8710684 0.86598533
000020 8d ea 52 3f b0 5b 20 3f f9 c9 35 3f 81 9b 61 3f
       0.82389146 0.62639904 0.7101131 0.88127905
000030 1a f4 5c 3f 96 f2 7e 3f ff ac 55 3f 33 ce 57 3f
       0.8630997 0.99588907 0.83467096 0.8429901
000040 75 e9 47 3f 9b 1c 66 3f 67 40 71 3f 96 70 6c 3f
       0.780906 0.898874 0.94238895 0.9235929
000050 c0 9b 65 3f ab e7 30 3f b3 a2 70 3f a0 d0 69 3f
       0.8969078 0.691035 0.9399826 0.9133396
000060 a4 5a 2e 3f 60 ac 2e 3f 30 76 65 3f 05 32 48 3f
       0.68107057 0.68231773 0.89633465 0.78201324
000070 de 6f 35 3f 6f 23 3a 3f f0 8a 65 3f 1f 39 37 3f
       0.7087382 0.7271032 0.89665127 0.71571535
000080 b3 1d 73 3f 9a c9 73 3f ff 46 7c 3f ba d8 60 3f
       0.9496719 0.95229495 0.9854583 0.878307
000090 09 3d 68 3f 5f 41 11 3f d3 a4 38 3f 69 e2 53 3f
       0.9071813 0.56740373 0.721265 0.8276735
0000a0 7c 6f 58 3f 81 fc 4f 3f 47 69 29 3f c4 3b 69 3f
       0.8454511 0.81244665 0.66176265 0.9110682
0000b0 6b ed 6b 3f ab 70 36 3f db 0d 7c 3f 0d 12 49 3f
       0.92159146 0.7126567 0.9845864 0.7854317
0000c0 b0 b2 5f 3f 8a 91 80 3f ab 84 64 3f 11 d5 55 3f
       0.8738203 1.0044415 0.89264935 0.8352824
0000d0 83 d3 5a 3f 6d 90 3f 3f a3 08 39 3f 8f 25 48 3f
       0.8547899 0.7482975 0.72278804 0.7818231
0000e0 b5 69 79 3f 13 e4 71 3f e5 52 42 3f eb b9 67 3f
       0.9742692 0.9448864 0.75907737 0.90518063
0000f0 31 c4 5b 3f 12 9d 62 3f a9 b6 7d 3f c8 47 6e 3f
       0.8584624 0.8852092 0.9910684 0.9307828
000100 f4 37 6d 3f 41 b3 6b 3f 5f 77 6f 3f 6b 51 65 3f
       0.926635 0.92070395 0.9354152 0.8957736
000110 4d df 5b 3f 56 1f 79 3f df 2c 69 3f d3 79 3a 3f
       0.85887605 0.9731344 0.9108409 0.7284214
000120 6d 85 59 3f 9e f4 5c 3f 76 7d 57 3f 87 ca 32 3f
       0.84969217 0.86310756 0.84175813 0.6984028
000130 1f b3 31 3f 79 4c 6a 3f d5 a0 44 3f 7c 57 2c 3f
       0.6941394 0.9152294 0.7680791 0.6732099
000140 13 29 7b 3f bf 3b 33 3f d6 d0 5b 3f ef 51 4f 3f
       0.9810955 0.7001304 0.85865533 0.80984396
000150 4e cd 6e 3f 1c 19 64 3f 51 7f 80 3f b1 8a 7f 3f
       0.9328202 0.89100814 1.0038854 0.99821
000160 3e 4b 63 3f 02 32 3f 3f b7 ea 43 3f 21 fe 39 3f
       0.88786685 0.7468568 0.7653002 0.72653395
000170 fa dd 5f 3f 71 d8 75 3f e3 b0 2c 3f e3 b5 6e 3f
       0.87448084 0.9603339 0.6745741 0.9324629

conv3.1.bias f4 [96]
000000 ec a1 28 be 69 0c 6b be ed 7c 64 be 88 75 5a be
       -0.16468018 -0.22953953 -0.2231328 -0.21333897
000010 db ad 28 be 81 b0 8a be c9 47 3a be 72 2d a5 be
       -0.1647257 -0.27087787 -0.18191446 -0.32261235
000020 dc 01 45 be 23 1c 92 be 09 8b 7d be 5c 17 90 be
       -0.1923899 -0.28537092 -0.24760069 -0.28142822
000030 b7 fd 4a be 51 4b 08 be 44 7b 64 be 87 d7 54 be
       -0.19823347 -0.13309981 -0.22312647 -0.20785342
000040 53 08 90 be 7d 72 61 be fd 97 ef bd 35 60 72 be
       -0.2813135 -0.2201633 -0.11698911 -0.23669513
000050 a5 a8 2e be 8f 51 5a be 76 4d e8 bd c9 b2 49 be
       -0.1705652 -0.21320175 -0.113428995 -0.19697107
000060 26 ad 31 be ee 2d 72 be ea e2 34 be 55 1a 7b be
       -0.17351207 -0.23650333 -0.17664686 -0.24521764
000070 cc 2e 9e be 17 fa 84 be 5b dc 4e be 59 af 98 be
       -0.30895078 -0.25972053 -0.20201246 -0.2982128
000080 31 2c 53 be 6a b2 3d be 56 69 2f be 73 71 24 be
       -0.20622326 -0.18525091 -0.17130026 -0.16058902
000090 74 aa 46 be 19 f7 46 be 08 4f 57 be 98 1a 8a be
       -0.1940096 -0.19430198 -0.21026242 -0.26973414
0000a0 43 6b 54 be 01 11 83 be dc a8 86 be 39 fd 3d be
       -0.20744042 -0.2559891 -0.26300704 -0.18553628
0000b0 51 d0 6d be eb 1b 85 be ab 92 36 be 19 29 88 be
       -0.23223998 -0.25997862 -0.17829387 -0.26593855
0000c0 84 53 6c be 45 1c 42 be 29 25 6d be 24 31 31 be
       -0.23078734 -0.18956096 -0.23158707 -0.17303902
0000d0 e1 54 31 be d7 c9 7d be 3f fa 8a be 40 fd 32 be
       -0.17317535 -0.24784027 -0.27144048 -0.1747942
0000e0 5f 4f f1 bd 8e b8 5c be 95 14 18 be 2f e9 7c be
       -0.11782717 -0.21554777 -0.14851601 -0.24698327
0000f0 31 c1 2f be 39 47 54 be bf b3 70 be 97 18 2b be
       -0.1716354 -0.20730294 -0.23506068 -0.16708599
000100 30 ef 03 be 4d 20 cd bd dc 83 27 be a7 f1 4b be
       -0.12884212 -0.100159265 -0.16358894 -0.19916402
000110 66 93 68 be bb a8 0b be 7e 23 16 be 4a f1 8f be
       -0.22712478 -0.13638584 -0.14661977 -0.28113776
000120 41 d2 51 be 19 63 66 be 1e 58 64 be 49 59 46 be
       -0.20490362 -0.2249874 -0.22299239 -0.19369997
000130 95 03 6f be 55 94 42 be 26 88 4c be 0c 8f 7d be
       -0.2334121 -0.19001897 -0.19973812 -0.247616
000140 3b 23 47 be 7e 65 54 be 1b 2e 30 be 50 d9 58 be
       -0.19447033 -0.20741841 -0.17205088 -0.21176648
000150 95 81 66 be b1 2d 48 be ad d8 13 be f1 83 25 be
       -0.22510369 -0.1954868 -0.14438124 -0.16163613
000160 72 25 32 be aa ca 59 be ad f3 76 be 54 36 a1 be
       -0.17397097 -0.21268716 -0.24116392 -0.31486762
000170 60 05 31 be ee 49 3b be 4c 43 42 be ec 3e 27 be
       -0.17287207 -0.1828992 -0.18970984 -0.16332597

conv3.1.running_mean f4 [96]
000000 e0 5d 6b bf b6 54 b3 bd 09 44 42 bf 07 81 09 bf
       -0.91940117 -0.08756392 -0.75885063 -0.53712505
000010 b5 f2 ab bf 26 1f 92 bf 85 bd 10 bf d9 26 66 bf
       -1.3433443 -1.1415756 -0.56539184 -0.89903027
000020 1c 85 d7 be 08 e2 a1 3e 6e c1 bf 3e bf ea 48 bf
       -0.42093742 0.3161776 0.37452263 -0.78483194
000030 a4 2b 85 bf 04 2b a8 bf 2f e8 96 bf 78 c3 04 bf
       -1.0403943 -1.3138127 -1.1789607 -0.5186076
000040 df 68 01 3f 93 c6 d4 bf d6 d2 7c bf fd 08 1a bf
       0.50550646 -1.66231 -0.9875921 -0.60169965
000050 e1 a4 ce be 36 e2 d5 3e e3 f8 69 bf 05 d9 09 bf
       -0.40360168 0.41774148 -0.91395396 -0.5384677
000060 76 92 cd 3e 5b 4c 7a 3f ff 4f 83 bf 7c 29 ea be
       0.40150803 0.9777276 -1.0258788 -0.45734775
000070 bc 9c 5c be 45 b4 77 bf 43 e4 f5 be 4b c2 27 bf
       -0.21544164 -0.96759444 -0.48025712 -0.6553084
000080 2f d2 00 c0 c9 3a 79 bf 91 66 6b bf 97 16 7f be
       -2.0128286 -0.97355324 -0.9195338 -0.24910961
000090 78 89 aa bf 0c 93 56 be 21 f9 96 3f d4 c1 7b bf
       -1.3323202 -0.20954531 1.1794778 -0.98342633
0000a0 26 66 3a bf 01 b2 e1 3d f5 92 07 bf ec 69 38 bf
       -0.72812116 0.1102028 -0.52958614 -0.72036624
0000b0 9c de 97 bf dd c8 19 bf fd 93 c5 bf 0d 5d 3c bf
       -1.186481 -0.6007212 -1.5435787 -0.73579484
0000c0 58 f0 9a bf 04 ba 94 bf c7 ab 04 bf e9 c1 bf bf
       -1.2104597 -1.1619267 -0.5182461 -1.4981052
0000d0 b4 4e d5 bd 23 a6 54 bf dd 0f a1 3e 12 56 ef bf
       -0.10415402 -0.83066005 0.31457415 -1.8698142
0000e0 4d 6d cb bf 3a 50 02 bf 85 33 a1 bb cb 0d 80 bf
       -1.5892731 -0.50903666 -0.0049194717 -1.0004209
0000f0 6c 77 d2 bf 19 99 64 bf f5 e4 9a bf 61 42 35 bf
       -1.6442695 -0.8929611 -1.2101122 -0.7080441
000100 08 5b 81 bf ce 9b ff be 41 6e 4c bf ac 91 14 c0
       -1.0105906 -0.49923557 -0.79855734 -2.321391
000110 c4 cc 82 bf b4 d6 64 bf b5 ae d7 bf 86 68 58 be
       -1.021874 -0.8939011 -1.6850191 -0.21133623
000120 47 e7 ce bf 45 07 f6 be 7d 71 43 bf c8 5a f9 3e
       -1.616433 -0.4805242 -0.76345044 0.48702073
000130 a8 3f 68 3d ef fc a7 bf ce a3 03 c0 83 bd 0e 3f
       0.056701332 -1.3124064 -2.0568728 0.5575792
000140 82 a8 61 bf f8 ce 1f bf 5e 07 aa bf 65 d7 18 bf
       -0.8814775 -0.62425184 -1.3283498 -0.59703666
000150 f4 94 ec be f6 d9 8c bf d0 3d 8a bf d2 e2 a9 bf
       -0.46207392 -1.1004016 -1.0800114 -1.3272345
000160 89 c6 67 bf 11 60 df bd cb ea 53 bf a3 8e 85 be
       -0.90537316 -0.10906995 -0.8278014 -0.26085386
000170 33 1d b0 bf c0 13 d3 bf 04 ab da be 70 82 95 bf
       -1.3758911 -1.6490402 -0.427086 -1.1680431

conv3.1.running_var f4 [96]
000000 16 42 a1 3f e3 d4 e7 3f e2 bc e7 3f 93 22 56 3f
       1.2598293 1.8111843 1.8104517 0.83646506
000010 fd 11 b2 3f 07 1f 96 3f 6d 54 e5 3f b5 00 94 3f
       1.391174 1.1728219 1.791639 1.1562716
000020 92 e4 8a 3f 26 4c 6a 3f cd 95 77 3f 63 b5 4d 3f
       1.0851004 0.91522443 0.9671295 0.803549
000030 15 19 8c 3f fe 04 1d 40 5f 41 8f 3f 55 b0 f2 3f
       1.0945154 2.4534297 1.1191825 1.8960062
000040 76 73 92 3f 9c 38 a6 3f ce c8 e9 3f 35 f4 06 40
       1.1441486 1.2986026 1.8264406 2.1086552
000050 ad 2f 85 3f d1 be 2d 3f 3b 37 bb 3f 31 a0 a2 3f
       1.0405174 0.6786929 1.462623 1.2705137
000060 d5 a4 4a 3f 67 ed f0 3f 0a ae e2 3f 05 6a 6b 3f
       0.79157764 1.882245 1.7709363 0.9195865
000070 af b2 96 3f c3 75 63 3f 30 5f c1 3f 0b 7b 70 3f
       1.177328 0.88851565 1.5107174 0.9393775
000080 ef d0 10 40 01 b8 9c 3f 20 6a 9b 3f a4 e8 40 3f
       2.2627523 1.2243654 1.2141762 0.7535498
000090 e0 25 05 40 58 70 65 3f a8 d8 c7 3f 92 ca 88 3f
       2.0804367 0.8962455 1.5612993 1.068682
0000a0 a3 47 69 3f 7d fb 18 3f fb 2c 7e 3f 81 07 c8 3f
       0.91124934 0.5975874 0.99287385 1.562729
0000b0 cf cc 65 3f 25 f6 e9 3f fa f9 90 3f de 26 88 3f
       0.8976564 1.8278242 1.1326287 1.0636861
0000c0 44 94 50 3f e8 d7 d4 3f ff 97 9d 3f 0c bc f2 3f
       0.81476235 1.6628389 1.231201 1.8963637
0000d0 89 b3 87 3f b0 56 82 3f 6e 19 51 3f 8e af 35 40
       1.0601665 1.0182705 0.8167943 2.83884
0000e0 35 e8 18 40 96 63 11 40 7f 3c 2b 3f eb ba 93 3f
       2.3891728 2.2717032 0.66889185 1.1541418
0000f0 63 9a 6c 3f 54 15 05 40 ec e2 b6 3f ef 89 f7 3f
       0.92423075 2.0794268 1.4288001 1.9338969
000100 0c 09 cb 3f f9 3e ba 3f 7f d0 16 40 d7 8f 4f 40
       1.5862136 1.4550468 2.3564756 3.2431543
000110 4f c7 3d 3f 37 ef 82 3f 81 63 92 3f 17 94 39 3f
       0.74132246 1.0229253 1.1436616 0.7249159
000120 70 97 2b 40 a6 78 92 3f f9 b3 b5 3f 73 8b 25 40
       2.681118 1.1443069 1.4195548 2.5866363
000130 d5 38 ac 3f a7 5b 92 3f 27 f9 88 3f a1 3e a1 3f
       1.3454844 1.143422 1.0701035 1.2597238
000140 7b 3b 09 40 d0 36 6c 3f 35 d5 c0 3f 93 95 82 3f
       2.1442554 0.9227114 1.5065066 1.0201896
000150 36 86 c2 3f b0 a7 9c 3f de 46 e4 3f 86 e5 f5 3f
       1.5197208 1.2238674 1.7834127 1.921067
000160 26 77 61 3f f7 7d 23 3f 46 7d a1 3f 67 84 64 3f
       0.8807243 0.6386408 1.2616355 0.8926453
000170 0a 11 8f 3f 70 f4 d7 3f 5b 50 ce 3f 08 eb 02 40
       1.1177075 1.6871471 1.6118273 2.0455952
